models/CalibratedXKCDModel/model.pth (torch_old, 129926 bytes, 9 tensors)

availabilities f4 [1, 829]
000000 0f b7 99 c0 1b 10 99 c0 bb dd d3 c0 9b 31 d5 c0
       -4.803596 -4.783216 -6.6208167 -6.6623054
000010 af 4d a4 c0 de 5c a0 c0 bd aa c9 c0 8b eb d6 c0
       -5.134483 -5.0113363 -6.302092 -6.716253
000020 46 24 89 c0 d8 a4 7f c0 0a e7 70 3d 60 0e 70 c0
       -4.285678 -3.9944363 0.058814086 -3.7508774
000030 13 c2 71 c0 df 3b e8 bf 7a 58 fa bf 00 60 a9 c0
       -3.7774704 -1.8143271 -1.9558251 -5.2929688
000040 db ce 8e c0 27 7f b1 c0 d4 da 78 c0 c5 ec b2 c0
       -4.462751 -5.5467715 -3.8883562 -5.5914025
000050 31 cd 8c c0 d0 30 e9 bf 09 96 ad c0 9d 0f 56 c0
       -4.400048 -1.8218021 -5.424565 -3.344703
000060 e6 54 8d c0 24 9e a4 c0 0f 5e ba c0 96 9e b1 c0
       -4.4166136 -5.1443043 -5.823982 -5.5506086
000070 2b 58 ae c0 26 bb ad c0 a1 fe 9b c0 b4 6f a1 c0
       -5.4482627 -5.4290953 -4.8748326 -5.0448856
000080 8d c7 b0 c0 ad 30 c6 c0 09 31 a7 c0 e3 cf bf c0
       -5.524359 -6.193442 -5.2247357 -5.994127
000090 23 6e 54 3f 43 be 9b c0 49 47 a2 c0 2e ba b4 c0
       0.82980555 -4.8669753 -5.071202 -5.647727
0000a0 2c cc 4c 40 98 52 b5 c0 27 92 bd c0 f9 c6 4e c0
       3.1999617 -5.6663322 -5.924091 -3.2308943
0000b0 5a 61 c5 40 86 31 cc bf bc 4e 79 bf c5 9b 40 c0
       6.1681337 -1.5952613 -0.97385764 -3.0095074
0000c0 17 9d 68 c0 35 33 cc c0 4d 82 99 c0 3d 95 b2 c0
       -3.634588 -6.381251 -4.797156 -5.5807176
0000d0 1e 4f b4 c0 62 36 ac c0 19 40 73 c0 24 72 58 c0
       -5.634658 -5.3816385 -3.8007872 -3.3819666
0000e0 a8 83 54 c0 ef cc a2 c0 f4 80 91 c0 d8 84 bd c0
       -3.3205357 -5.0875163 -4.5469913 -5.9224663
0000f0 ca 19 b7 c0 49 05 b3 c0 7b 83 3d c0 eb 08 b4 c0
       -5.721898 -5.594395 -2.96115 -5.6260886
000100 29 f9 df bf 3c af 86 c0 67 2c 09 c0 55 7a a4 c0
       -1.7497913 -4.208891 -2.143335 -5.139933
000110 8b 9b b6 c0 1d 24 4d bf aa b3 ca c0 4b 60 a6 c0
       -5.706487 -0.8013323 -6.3344316 -5.1992545
000120 0d e9 8a c0 06 af b6 c0 83 88 be c0 d4 6b af c0
       -4.3409486 -5.708865 -5.954164 -5.4819126
000130 71 50 96 c0 45 50 9a c0 24 6d b1 c0 b2 95 87 c0
       -4.6973195 -4.8222985 -5.544573 -4.2370234
000140 fd 95 0c c0 de 8e 11 c0 42 7b 31 c0 96 22 ad c0
       -2.1966546 -2.274345 -2.773148 -5.410472
000150 b0 12 94 c0 e7 cc 7f c0 3d e6 79 c0 c4 30 b5 c0
       -4.627281 -3.9968812 -3.9046776 -5.662203
000160 3e e1 68 c0 ef da b7 c0 0d c3 94 c0 56 16 91 c0
       -3.6387477 -5.7454753 -4.64881 -4.5339766
000170 e3 9f c7 40 6e 26 5f c0 1b 1c 88 c0 6f 93 74 c0
       6.2382674 -3.4867206 -4.253431 -3.8214986
000180 2a 75 9e c0 09 46 ab c0 b2 fe 99 c0 e1 fd 63 c0
       -4.9518023 -5.352299 -4.8123407 -3.5623705
000190 84 44 81 c0 2b 82 7b c0 c1 51 a2 c0 be ab 99 c0
       -4.0396137 -3.9298198 -5.0724797 -4.8022146
0001a0 c3 53 87 c0 cb cc 81 c0 9c de be c0 e2 32 90 c0
       -4.228975 -4.056249 -5.964674 -4.5062113
0001b0 b2 23 a9 c0 78 26 86 bf 7d da 60 bf b6 f9 8c c0
       -5.2856073 -1.048049 -0.87833387 -4.4054823
0001c0 6d eb 31 c0 cd 79 87 c0 7a 02 8f c0 0f a9 9e c0
       -2.7799942 -4.2336183 -4.4690523 -4.958137
0001d0 34 47 87 c0 e7 ad b9 c0 a0 7c 8b c0 d7 82 8c c0
       -4.227442 -5.8024783 -4.358963 -4.3909717
0001e0 9e 33 70 c0 e7 93 b8 c0 f9 3f b4 c0 26 e9 8e c0
       -3.7531505 -5.7680545 -5.632809 -4.4659605
0001f0 46 01 9f c0 f6 ee be c0 9e 33 b5 c0 47 f5 a6 c0
       -4.9689054 -5.96667 -5.662551 -5.217441
000200 53 e7 9b c0 f7 60 97 c0 40 cc 8a c0 3b 1d bb c0
       -4.871988 -4.7305865 -4.337433 -5.847318
000210 3e d2 9a c0 6d 2d 6e c0 fd bc ba c0 1e bc 24 c0
       -4.8381643 -3.7215226 -5.83557 -2.5739818
000220 c1 de bc bf 87 5b b3 c0 80 70 a5 c0 d9 5f bc c0
       -1.4755479 -5.604923 -5.169983 -5.8867
000230 81 a2 64 c0 3a be 80 c0 04 a9 b7 c0 d3 7b 84 c0
       -3.5724185 -4.023221 -5.739382 -4.1401153
000240 40 8d c5 c0 54 ae 92 c0 b6 bd a3 c0 83 15 c1 c0
       -6.1734924 -4.5837803 -5.116908 -6.033876
000250 3a dd a7 c0 8d 18 d7 c0 ae 6c cc c0 52 82 b8 c0
       -5.245755 -6.721747 -6.3882666 -5.7659082
000260 55 89 af c0 fc e5 10 c0 6b 7b b4 c0 f2 59 84 c0
       -5.485514 -2.2640371 -5.6400657 -4.1359797
000270 58 60 6b c0 8b 46 8f c0 91 cb ca bf 52 95 1d c0
       -3.6777554 -4.477361 -1.5843374 -2.4622388
000280 6f ec 80 40 10 0e ba c0 74 8d 7e c0 ef 73 b1 c0
       4.0288615 -5.8142166 -3.9773836 -5.545402
000290 9b 77 7e c0 31 25 3a bf ef ba 47 c0 92 30 96 c0
       -3.9760501 -0.72713 -3.1207845 -4.693429
0002a0 40 d2 b1 bf d6 20 b7 c0 86 20 af c0 db 46 82 c0
       -1.3892288 -5.7227583 -5.47272 -4.0711493
0002b0 ce 0e 7a c0 ad e8 99 c0 dd cd 79 c0 a9 8f 40 3e
       -3.9071536 -4.809653 -3.90319 0.18804802
0002c0 62 46 38 bf cc 97 ad c0 90 75 b7 c0 28 60 ad c0
       -0.71982396 -5.42478 -5.733101 -5.417988
0002d0 45 04 9a c0 39 3e 71 c0 fd 51 9d c0 a1 25 ab c0
       -4.813021 -3.7694228 -4.9162583 -5.3483434
0002e0 4b 85 9d c0 44 0e 3e c0 20 f0 7c c0 0d 48 84 c0
       -4.922521 -2.9696207 -3.952156 -4.1337953
0002f0 42 32 bf c0 81 d2 b5 c0 91 de 7f c0 ac 84 99 c0
       -5.974885 -5.6819463 -3.9979594 -4.7974453
000300 16 83 9d c0 f2 3d 3a c0 5a b1 6a c0 0a e3 0a c0
       -4.9222517 -2.9100308 -3.6670747 -2.1701074
000310 c8 fd 51 c0 51 fa 95 c0 82 3e 9c bf 81 4b a7 c0
       -3.2811146 -4.686806 -1.2206576 -5.227967
000320 9f 53 37 bf aa 1c 9f bf 99 95 75 c0 d9 e6 cf c0
       -0.7161197 -1.2430623 -3.8372557 -6.4969296
000330 e7 c4 aa c0 a5 06 60 c0 b3 84 ba c0 55 e6 a2 c0
       -5.336536 -3.5004056 -5.8286986 -5.0906167
000340 c9 61 b7 c0 3a 66 b9 c0 c4 7a 9e c0 9e 43 ba c0
       -5.7306867 -5.793729 -4.952486 -5.820754
000350 3e 95 61 c0 23 c6 bb c0 f5 a6 82 bf 1f d8 3e c0
       -3.524734 -5.8679366 -1.0207201 -2.981941
000360 f1 38 97 c0 0e 5e 12 c0 2e ff 99 c0 a1 e6 b5 c0
       -4.725701 -2.2869906 -4.8124 -5.684403
000370 5b f0 af c0 c4 76 bb c0 b3 88 c1 c0 88 4e b0 c0
       -5.4980903 -5.8582478 -6.047937 -5.5095863
000380 a3 b3 b1 c0 6f 39 da c0 9e db b5 c0 e4 07 ce c0
       -5.5531783 -6.819511 -5.6830587 -6.438463
000390 cd 14 6f c0 3c 2d 8d c0 0d 5a d1 c0 8c 30 d7 c0
       -3.7356446 -4.411772 -6.5422425 -6.724676
0003a0 be ed a5 c0 8a a8 a9 c0 8c aa 76 c0 57 a3 37 c0
       -5.1852713 -5.3018236 -3.8541594 -2.8693445
0003b0 ef b8 53 c0 ef 4e ae c0 e3 aa b8 c0 2c 1e a1 c0
       -3.3081625 -5.4471354 -5.77086 -5.034933
0003c0 fb f9 c2 c0 8f ac 90 c0 db 1a 99 c0 66 70 ab c0
       -6.093015 -4.5210643 -4.7845283 -5.3574705
0003d0 f4 e9 a3 c0 7e ec aa c0 dd e5 c6 c0 92 a2 99 c0
       -5.1223087 -5.3413687 -6.2155595 -4.801095
0003e0 30 14 aa c0 a8 f0 99 c0 e1 60 6f c0 66 d1 d5 c0
       -5.3149643 -4.810627 -3.740288 -6.6818113
0003f0 21 c8 a1 c0 f3 5c 90 c0 b7 60 b7 c0 2b 65 ac c0
       -5.05568 -4.5113463 -5.730556 -5.3873496

encoder.fc0.weight f4 [32, 54]
000000 45 95 98 bf 3e af 70 3e fc 5d bb bd ba c6 cb 3e
       -1.1920553 0.2350435 -0.091487855 0.39800054
000010 96 95 77 be 13 25 fe 3e 71 51 65 bd 1c 68 15 3f
       -0.24178156 0.4963766 -0.05598587 0.58361983
000020 ac 52 80 3e 30 50 0d 3f 1e 00 78 3e b3 55 80 be
       0.25063074 0.5520048 0.24218795 -0.25065383
000030 5f d5 ca 3c 31 3a 36 3e 2f fc 28 bd 80 2f e7 ba
       0.024759946 0.17795636 -0.041256126 -0.0017638057
000040 95 e0 fc 3d 57 79 ba bd 46 14 d1 3f 63 d1 57 bf
       0.12347523 -0.09105175 1.6334312 -0.84303874
000050 92 73 40 be 23 82 2e bf bf 14 9c 3e 3d c9 cd 3d
       -0.18794087 -0.6816732 0.30484578 0.10048149
000060 e9 70 da be e3 fd c0 bd 3e f7 a1 ba 7c 12 f9 3d
       -0.4266427 -0.09423425 -0.0012357009 0.12161729
000070 79 b0 13 3f 37 30 b1 3e 08 01 0f 3f 5d e1 99 3e
       0.5769115 0.34607098 0.5586095 0.3005475
000080 26 53 04 bf f1 ce e3 3e 60 d3 17 3e 35 20 b2 3e
       -0.51689374 0.4449382 0.14826727 0.34790197
000090 fa 84 95 3e da ac 2a 3f 53 f1 8f be 91 33 50 bf
       0.29203016 0.6667 -0.28113803 -0.81328684
0000a0 75 89 fe bd e0 c8 9c 3e 13 15 83 be 43 d0 83 bd
       -0.124285616 0.30622005 -0.25602016 -0.06436207
0000b0 39 2c c3 3d 4e 54 5d c0 e7 d1 77 3e c1 52 0d 3e
       0.09529919 -3.4582705 0.24201165 0.138011
0000c0 3c fe 81 3e d2 bc 10 bf df 64 04 3f 81 f5 4f 3d
       0.25389278 -0.56538117 0.5171642 0.05077124
0000d0 ae 5c 20 3b dd c7 dd 3c 2a 15 1c bf f9 31 33 3f
       0.0024469304 0.027072841 -0.60969794 0.6999813
0000e0 ff 12 b9 be 42 82 b9 3e 38 28 f5 be c4 45 2b 3f
       -0.36147305 0.3623219 -0.47882247 0.6690333
0000f0 41 84 68 be d1 f9 1f 3d c0 20 0d bd 55 a2 91 3f
       -0.22706701 0.039056603 -0.03445506 1.1377665
000100 16 4d 99 3d 5d f7 61 be b8 3a 5e bf b5 20 ae 3e
       0.07485406 -0.22067018 -0.8680835 0.34009328
000110 f8 be 42 bd 60 58 d4 bd c2 78 31 be 7a ac 54 be
       -0.047545403 -0.10368419 -0.17331222 -0.2076892
000120 80 14 1f 40 fa 41 ed be 78 4a 72 3e f1 29 a8 bf
       2.4856262 -0.463394 0.2366122 -1.31378
000130 6e a4 95 3f 12 3b 44 be df c0 09 be 63 5e 5a 3b
       1.1690805 -0.19163159 -0.1345248 0.003332042
000140 d7 4e c9 bc a0 2e 70 3c 69 45 13 be 34 d7 88 bd
       -0.024573727 0.014659554 -0.14381947 -0.06681672
000150 b4 88 01 3f 42 33 ba be 98 87 0b 3f 66 76 28 be
       0.5059922 -0.36367232 0.54503775 -0.16451415
000160 6a 48 42 be be 02 0d 3f d0 93 94 bf 44 70 df be
       -0.18972936 0.5508231 -1.1607609 -0.4364034
000170 4f c4 8c 3e 03 fd 4e 3f 61 05 cf be a8 90 ae bc
       0.27493522 0.80854815 -0.4043379 -0.021309212
000180 f7 2d 5e 3e c8 3b 56 3e 33 66 01 be 81 bf 69 3e
       0.21697222 0.20921242 -0.12636642 0.22826959
000190 64 5c 1c bf b8 29 ff 3c b1 97 be 3d 1a e4 ec bd
       -0.61078477 0.031147823 0.093062766 -0.115669444
0001a0 cb 3d 06 3c 19 d4 80 3a ff 6c 72 3e 32 bf 8e be
       0.0081934435 0.0009828835 0.23674391 -0.27880245
0001b0 eb 56 0f bf 48 9e 81 3d ce 2c 67 3f 97 60 01 3f
       -0.55992 0.06329018 0.9030274 0.5053801
0001c0 85 61 81 be d9 42 cb 3e 85 9d dc be 09 81 74 3e
       -0.25269714 0.39699438 -0.43088928 0.23877348
0001d0 cd d1 c6 3d 16 1b 85 3e d9 64 87 be c0 53 a5 3e
       0.09707985 0.25997227 -0.26444128 0.3229046
0001e0 74 e8 93 be 0f 0d c1 3d cd 61 59 3d 38 ba 40 be
       -0.28888285 0.09426319 0.053071786 -0.18821037
0001f0 f3 58 fc bd 64 f2 3f 3e fd fe 4b 3e 28 4c 61 bd
       -0.12321653 0.18744808 0.19921489 -0.05500427
000200 be 49 6d be 79 f1 3a 3e 41 fd b5 3e 7d a4 d1 be
       -0.23172662 0.18256177 0.3554478 -0.40945807
000210 f8 96 e4 3d b0 c2 f4 bd be e6 39 3c 4e 66 bb 3d
       0.111616075 -0.11951196 0.011346517 0.091503724
000220 bd f9 f0 3f 8a 1d 5f bf 41 a8 ad bd 26 8a 9c 3e
       1.8826214 -0.8715445 -0.084793575 0.3057415
000230 c7 d5 47 bf a2 64 ec 3e 4a fc 3f bd 88 01 1e 3d
       -0.78060573 0.46170527 -0.04687146 0.03857568
000240 32 a7 9a 3d 23 14 04 3f 3a c8 c6 be 21 f7 ca be
       0.07551421 0.51593226 -0.38824636 -0.3964167
000250 14 ad ad 3b a1 0e f3 3e 88 8b 47 3e f8 4c e4 bc
       0.0053001735 0.47472098 0.1948682 -0.027868733
000260 0a aa 6a bd d6 0e a8 3f b8 02 11 bf 59 6a 89 be
       -0.057291068 1.3129528 -0.56644773 -0.2683895
000270 96 7b 52 be c7 e7 f5 3e 77 c6 8f 3e cd c3 6c be
       -0.20554957 0.48028395 0.28081104 -0.23121567
000280 b9 b1 2d be ba 48 83 bd ed 8d 8c bf 49 b2 e8 3e
       -0.16962327 -0.06410356 -1.0980812 0.4544852
000290 e3 98 c2 bd 67 cc ab 3e 34 f3 44 be f1 25 5e 3f
       -0.09501817 0.33554384 -0.192334 0.86776644
0002a0 ba 46 0e 3e ab 8a 2f bd 70 04 89 3e 0b 0d 10 3f
       0.13894168 -0.042856853 0.26761198 0.562699
0002b0 5b 97 59 be 66 fa d2 3e c1 b7 de 3e bd bc 11 be
       -0.21249144 0.41206664 0.43499568 -0.14232154
0002c0 69 a5 25 bd 94 ca d9 be 56 d9 c9 3d 08 1f 69 be
       -0.04044095 -0.42537367 0.09855907 -0.22765744
0002d0 81 8a 8f bf a1 5d b6 be b8 d8 3f 3f a2 c0 36 3e
       -1.1214143 -0.35618308 0.7494006 0.17846921
0002e0 f2 9d ca be c0 d5 e9 bd 4e df 83 bd 0e 2b e9 3e
       -0.39573628 -0.11417723 -0.06439076 0.4554066
0002f0 6c 6e d5 3e b7 27 af bd 20 b1 92 3f 2a 32 ad be
       0.41685808 -0.08552497 1.1460304 -0.33827335
000300 39 65 bb 3e a6 1f c2 3e 0d 54 1c bf e7 3c 96 3e
       0.36600664 0.3791477 -0.6106575 0.2934334
000310 a3 0a 14 3e d8 36 95 be 6d 73 5a be d5 ad e2 3e
       0.14457183 -0.29143405 -0.21333094 0.44273248
000320 62 5d c5 3e e0 08 65 be 2e ec bb be 80 9f 72 be
       0.38547808 -0.22366667 -0.36703628 -0.23693657
000330 99 e1 8f 3e 36 7b d9 3d b2 99 41 bc cc 30 0d c0
       0.28101805 0.10619204 -0.011816429 -2.2061033
000340 fd 4f 34 3e 23 f8 87 3d cc 5e 77 3f a0 a1 2f be
       0.17608638 0.06639125 0.96629024 -0.17151499
000350 0b 97 96 3e 8c 62 70 be bf db 3b be fa 45 c7 3d
       0.29412112 -0.23475093 -0.18345545 0.09730144
000360 35 96 72 bf 43 1f 23 3d 4f 1a 15 bf 33 0b a6 be
       -0.9476045 0.039824735 -0.5824327 -0.3243042
000370 2f d9 20 3f 53 ab a6 bd 00 3f ad 3d 75 b0 b6 3e
       0.62831396 -0.08138146 0.08459282 0.356815
000380 24 e0 0d 3e 0d 5f 5f 3d d1 62 b2 be b2 71 e2 be
       0.13855034 0.054534007 -0.34841016 -0.44227368
000390 72 2f 2d bf 66 e3 2d be 1d ba b4 3e 9c 3b 9e 3a
       -0.6765052 -0.16981277 0.35298243 0.0012072208
0003a0 ff 1e 98 be e0 73 73 3e 44 6a 34 3f ce 9f 18 bf
       -0.29711148 0.23774672 0.7047465 -0.5961884
0003b0 a8 13 06 be f6 e2 1a be 45 d1 45 bd aa 18 18 3e
       -0.13093436 -0.15125641 -0.048295278 0.14853159
0003c0 2c 93 87 bd cd 30 ac 3e b7 a4 b6 be b6 a5 94 3d
       -0.06619868 0.33630982 -0.35672542 0.07258169
0003d0 47 fe 36 3d 02 f9 84 3d 6f 7e ca 3e 5f ee ac 3e
       0.04467609 0.06492807 0.39549586 0.33775613
0003e0 25 5f f9 3d d3 ac 13 3e 59 d5 b4 3d 96 ed 33 3e
       0.121763505 0.14421396 0.08829755 0.175711
0003f0 8e fa fd be 26 e6 22 3d 77 42 a7 3d 3a 6a ee be
       -0.4960522 0.039770268 0.08166974 -0.4656542

encoder.fc0.bias f4 [32]
000000 f6 81 96 bf 1a 65 3d bf bd eb 13 bf 83 32 8a bf
       -1.1758411 -0.73982394 -0.57781583 -1.0796665
000010 b0 cc 71 bf 76 9d 41 bf 1e 4a 26 bf 87 f5 ed be
       -0.94452953 -0.7563089 -0.64956844 -0.46476385
000020 fe f0 1f bf 3f 64 9a bf f4 0a 9e 3c a8 7a 48 bf
       -0.624771 -1.2061843 0.019292332 -0.7831216
000030 11 a9 0f bf d5 a9 76 be 37 15 7c 3d 02 04 99 be
       -0.5611735 -0.24088223 0.06154367 -0.2988587
000040 b9 d3 ad be 78 10 cf bd 82 0e 84 bd 0c 6d ca bf
       -0.33950594 -0.10110563 -0.0644808 -1.5814528
000050 2d 0c d5 be 89 e7 1b bf 4f 68 c9 be 78 c5 33 bf
       -0.41610852 -0.6090017 -0.39337394 -0.7022319
000060 ef 42 d1 be 1d 69 08 bf 6d e7 84 bf f0 a8 bd be
       -0.4087138 -0.5328539 -1.0383126 -0.37042952
000070 25 8f f9 be 84 5a ab be 25 74 af 3c 0f 28 f3 be
       -0.48742023 -0.33467495 0.021417687 -0.474915

encoder.fc1.weight f4 [32, 32]
000000 bf c4 b9 be 44 07 45 be ff e9 63 3c 03 a1 6f 3e
       -0.36282918 -0.19241053 0.0139107695 0.23401265
000010 c4 96 67 bf e1 7f 85 3d 00 ef 66 3d 5f 59 48 3e
       -0.90464425 0.065185316 0.056380272 0.19565342
000020 c1 f8 fd bd 43 aa c6 be 67 62 19 3d e9 98 8f 3e
       -0.12400962 -0.38801774 0.03744736 0.2804635
000030 e1 af aa be 2e ae 5d be 2e 21 33 bd fb c0 42 3e
       -0.3333731 -0.21648476 -0.043732814 0.19018929
000040 39 44 18 3d 1c 98 5c 3e b5 a1 56 be 90 cd 40 3f
       0.037174437 0.215424 -0.20960124 0.75313663
000050 fe 88 ab bd be 6f 49 3e f4 66 87 be e2 24 0d 3e
       -0.083757386 0.19671533 -0.26445735 0.13783601
000060 9e e4 ae 3c f5 0e c1 3d d9 5e 01 3f 68 f1 ea be
       0.021349248 0.09426681 0.5053535 -0.45887303
000070 03 b2 87 bd 11 6a 04 3e 49 97 58 3c dd 6a 52 bf
       -0.0662575 0.12931086 0.013219663 -0.8219431
000080 20 b4 a7 be 4f 86 2c 3f bf 97 a9 be 46 11 e2 bd
       -0.32754612 0.6739244 -0.33123586 -0.11038451
000090 c7 ed ca 3d d5 1a a1 3d ac a2 9c 3d af f8 ef 3d
       0.09908634 0.07866446 0.07648215 0.117173545
0000a0 06 21 d0 3e 4b ac 0d 3f 1a 58 5d be a6 ef d3 be
       0.40650195 0.55341023 -0.2161564 -0.41393775
0000b0 82 1c d3 3e e4 d4 b5 be 99 d6 98 3b 52 8e c1 3e
       0.41232687 -0.35513985 0.004664254 0.37803894
0000c0 f9 79 18 bd 04 6e 8b 3e d8 3f 3e bd cc ea 1a 3f
       -0.037225697 0.27232373 -0.046447605 0.6051452
0000d0 eb 33 af be 1d 83 f8 3d 0d c7 24 3e 85 54 92 3e
       -0.34219298 0.12134383 0.16091557 0.28580108
0000e0 3c c3 94 3a 2a 5f 22 3e 08 8b bb bc 0d d1 05 3f
       0.0011349688 0.15856615 -0.022893444 0.5227211
0000f0 03 45 f9 3e 07 5a f7 bd 83 9f b8 be 6a 47 ca 3e
       0.48685464 -0.12077718 -0.36059198 0.3950761
000100 15 c7 f5 be 34 0c bd be 7f 76 73 3e 08 c2 fe 3c
       -0.4800345 -0.36923373 0.23775671 0.03109838
000110 c0 07 b8 be 1d cb 97 3d 7b 9a 48 3e ef 0b af 3e
       -0.35943413 0.07411788 0.1959018 0.34188792
000120 da 6c 7a 3e e4 66 4a 3d dd 36 82 bd 66 ce 18 be
       0.24455586 0.04941453 -0.063581206 -0.14922485
000130 54 36 7d bd 22 63 a0 3e 6d b8 c9 3d 2d ec 7a 3e
       -0.06181939 0.31325632 0.098496296 0.24504156
000140 da 34 cf 3d 5b 23 c5 3e 77 0a 93 bc 86 09 79 3e
       0.101175025 0.38503537 -0.017949326 0.24320039
000150 e1 0a 71 bd 89 a0 4e be 33 1d fa 3e 38 63 2b bd
       -0.058848266 -0.20178427 0.48850402 -0.04184267
000160 7d ac 05 bd 4e eb 92 3d 3c a9 1c 3e 75 67 18 3e
       -0.0326352 0.07173787 0.15298933 0.14883216
000170 07 28 0f bf d7 78 0d 3e 7a 03 06 3c 13 06 bd bc
       -0.5592045 0.13815628 0.00817954 -0.023074185
000180 63 ec 93 3e fb f0 71 3c cb 80 30 3d 01 7d 39 bf
       0.28891286 0.014766927 0.043091577 -0.72456366
000190 a7 6a 2f bf b8 7a 90 bd 37 aa 54 be b6 76 08 bf
       -0.68522114 -0.07054657 -0.20768057 -0.5330614
0001a0 f2 44 17 3e e8 8b 3f 3f 63 4c 06 bf aa 59 60 be
       0.14772394 0.74822855 -0.52460307 -0.21909204
0001b0 3a 06 28 bf 4b 91 08 be d9 64 bc be 04 33 54 bd
       -0.656345 -0.13336675 -0.3679569 -0.051806465
0001c0 d8 f9 93 be 4a be fb be 68 a8 6c 3e 22 8e 42 3f
       -0.28901553 -0.49168617 0.23111117 0.7599813
0001d0 9c 3a 86 be 38 70 0d bf f7 35 94 be 87 f1 f2 bd
       -0.2621659 -0.5524936 -0.28947422 -0.11862474
0001e0 11 89 ee 3c 2b ab 8c 3e 1b 26 06 3f cb 27 99 be
       0.029118093 0.2747434 0.52401894 -0.29913172
0001f0 18 14 dc be 84 16 84 3d 9b 77 25 be ea 01 97 be
       -0.4298408 0.06449607 -0.16158907 -0.29493648
000200 43 e3 9c 3e 67 ed 1c 3e 95 e9 e6 3d d9 cd 57 3c
       0.30642137 0.15324937 0.11275021 0.0131716365
000210 56 f6 4c be d2 4b f9 3d ae 28 bb be 57 4e 95 bf
       -0.20015845 0.12172665 -0.36554474 -1.1664532
000220 d7 39 88 3e 44 5b 0b 3e eb 66 4c be 05 8b 37 3d
       0.26606628 0.13609034 -0.19961135 0.044810314
000230 b2 00 ca be 05 20 c0 be 62 5f e8 bd 57 97 a5 be
       -0.39453655 -0.3752443 -0.11346318 -0.32342026
000240 82 29 02 3e d6 97 a1 bd ca 1b 00 3e 9e 64 70 3f
       0.12711146 -0.078902885 0.125106 0.9390353
000250 e6 d9 e8 bc 99 7b 6b 3e 8f c8 ea be 8f 8f 3b bd
       -0.028424215 0.22996368 -0.4585614 -0.045791205
000260 f6 7c 98 bb dd 5b fe 3e 33 6b c2 3e 1b 8a 35 3e
       -0.0046535684 0.4967946 0.37972412 0.17728464
000270 fe 6d 92 3e 94 34 4a bc 1e 71 2d be 18 2b 74 be
       0.28599542 -0.012341637 -0.16937682 -0.23844564
000280 c9 28 6d 3e c0 58 d5 3d 3b f0 fe be 24 08 b5 3e
       0.2316009 0.10417318 -0.49792656 0.35357773
000290 cf 55 87 3e 59 3a 0d 3e d9 8a 8d be eb dd e3 3e
       0.26432654 0.13791789 -0.27644995 0.44505247
0002a0 79 b9 65 bd b9 4a 7f 3d 9b 38 27 bd 2c 54 88 3e
       -0.056085084 0.06232712 -0.040825468 0.26626718
0002b0 cf 6b a6 3c 25 59 15 bd b4 ff ac be c8 0c 32 3d
       0.020315079 -0.036461968 -0.33788836 0.04346922
0002c0 44 f2 78 3e 78 f9 b3 3e fa d5 43 be 71 6c bb 3e
       0.24311167 0.35151267 -0.19124594 0.36606172
0002d0 b1 43 e9 be 36 04 9b 3d 1c 7e 93 3d d0 23 e0 bd
       -0.45559457 0.075691625 0.07201788 -0.10944331
0002e0 53 5c 04 3d 8c d1 b2 3e a1 46 95 3e bc 79 04 be
       0.03231461 0.34925497 0.29155448 -0.12937063
0002f0 55 d2 3c 3e 55 70 61 3e 0d 50 0a be 7e 51 35 be
       0.1843961 0.22015508 -0.135071 -0.17706868
000300 1c 65 dd 3d 2b 2f 74 bf 14 8f e2 3d aa f0 2e 3e
       0.10810301 -0.9538447 0.11062446 0.17083994
000310 ec d7 dd bd 47 ca b9 bc 6a 8d 87 bd 36 7c b7 be
       -0.108321995 -0.022679461 -0.066187695 -0.35836953
000320 1d 52 f2 be 03 d6 0d 3f 03 43 85 3d bb 39 0e 3e
       -0.47328272 0.5540468 0.06506922 0.1388921
000330 f1 da 39 3d 7d 19 00 bf 9b 8e 1f bd ca 89 af be
       0.045374814 -0.5003889 -0.03895436 -0.34284812
000340 b5 94 07 3f 2b 4c e4 3d 17 e5 15 3e e5 27 4d 3e
       0.52961284 0.111473404 0.14638172 0.2003475
000350 16 48 38 be b4 3f b5 3a e8 2a dd bd fd 68 76 bd
       -0.17996249 0.0013828189 -0.10799199 -0.06015872
000360 2c 29 46 3c f8 eb 2d 3e 86 65 9d 3e 56 e7 d6 bd
       0.012094777 0.16984546 0.3074152 -0.104933426
000370 22 13 40 bd b7 e5 19 bc 64 64 b9 3c 19 bb cb 3e
       -0.046893246 -0.009393147 0.022630878 0.39791182
000380 fc 10 b1 3e ff 46 8a bf bd 3f a0 be 77 a9 82 3e
       0.3458327 -1.0802916 -0.31298628 0.25519916
000390 6a b8 85 be 3d 31 cd bd 32 41 63 be 93 b0 60 be
       -0.2611726 -0.10019157 -0.22192839 -0.21942358
0003a0 51 7b 88 bf 08 b4 21 3f 9d c9 2b 3e 88 a6 69 be
       -1.0662633 0.6316533 0.16776128 -0.22817433
0003b0 74 62 cf 3e d8 42 17 3f ac fb 3b be 96 c5 ba 3c
       0.405048 0.5908637 -0.18357724 0.022799294
0003c0 ed 90 54 bf 8e 34 06 bf 92 c7 02 3f ff 95 9b 3f
       -0.8303364 -0.5242394 0.5108577 1.215515
0003d0 6c 2c ff be 2f 1c f0 3d 03 3f 4e 3e 8a 52 f6 3d
       -0.4983858 0.117241256 0.20141225 0.12027462
0003e0 b1 64 4f be fe 8c d0 3e dc 6c aa 3d 2e 3b 0c bf
       -0.20253254 0.40732569 0.083215445 -0.547778
0003f0 8e 62 18 3e c1 71 b9 bd 48 6f 15 bf 5a 1c ce 3e
       0.14881346 -0.090549 -0.58372927 0.40256006

encoder.fc1.bias f4 [32]
000000 e9 4a 1f bf 83 e0 2e bf ac eb 77 bf ce 81 bf bf
       -0.6222368 -0.6831133 -0.9684398 -1.4961488
000010 13 56 97 bf 36 a4 b4 be 57 d6 73 bf c5 77 b2 bf
       -1.1823143 -0.35281533 -0.9524893 -1.3942801
000020 e6 35 4e bf 32 ce 3d bf 60 67 84 bf bb b6 58 bf
       -0.8055099 -0.74142754 -1.0344048 -0.84653825
000030 4b bd 68 bf 46 2d 81 bf a0 90 fd bf c4 15 99 bf
       -0.9091384 -1.0091941 -1.9809761 -1.1959767
000040 1f 64 19 bf f4 02 3a bf cb 07 c1 bd fd a8 ad be
       -0.599184 -0.72660756 -0.094253145 -0.3391799
000050 45 73 06 bf db f9 b2 be 97 26 bd bf ba 95 2c bf
       -0.5251964 -0.3495625 -1.4777402 -0.67415965
000060 76 58 53 bf d2 65 b0 be be 84 56 bf 2d bf 07 c0
       -0.82556856 -0.34452683 -0.837963 -2.1210434
000070 b2 08 b3 bf b9 7f 6c bf 8e 25 26 bf da ed 7c bf
       -1.3987029 -0.9238239 -0.64901054 -0.9880043

encoder.fc2.weight f4 [32, 32]
000000 ff 3b 0f 3f 3a cb e3 bd a9 ff 49 bd 1b 7c a6 bd
       0.5595092 -0.11122747 -0.049316082 -0.0812914
000010 4f 33 fa 3d 85 c4 48 bd 61 c8 a5 3e a5 08 bc be
       0.122168176 -0.04901554 0.3237944 -0.36725345
000020 99 bb 84 bd b6 71 b6 bd 4a 3a 10 be 2b 39 90 3e
       -0.06481094 -0.089084074 -0.14084736 0.28168616
000030 b2 3d 5e 3d 4e aa 4c 3e bb 54 ad be e1 fb bb 3e
       0.054258056 0.19986841 -0.33853707 0.36715606
000040 c5 18 a3 3e a8 c9 8a 3d 9b d4 57 3e 3a ee af 3d
       0.31854835 0.06776744 0.21077196 0.0859036
000050 a1 83 d2 bd e1 f9 b3 3c 5e fa 96 bc 3e 08 35 be
       -0.102790125 0.021969737 -0.018429931 -0.17678925
000060 9d 23 21 3d 6f 0c eb be cd 00 02 3e 57 57 86 be
       0.039340604 -0.45907924 0.12695618 -0.2623851
000070 64 96 02 bd 36 b6 ca bd 33 96 c4 bc b5 aa 4c bf
       -0.031881705 -0.09898035 -0.023997402 -0.7994798
000080 9b 8a 80 be 62 37 0a 3e 81 36 f5 3d f1 e9 a6 3c
       -0.25105748 0.1349769 0.119732864 0.020375224
000090 4b bd d8 3e 5d c5 ab bc f1 f3 42 be 0c 50 cd 3d
       0.4233192 -0.020968134 -0.19038369 0.10025033
0000a0 59 33 78 be 9e 1e 01 3f dd 87 2d be 55 37 86 bd
       -0.24238338 0.50437343 -0.16946359 -0.065535225
0000b0 dd aa 62 be f2 de 44 3c 2a 07 b8 bc be 5c b7 be
       -0.22135492 0.012016045 -0.022464354 -0.35812944
0000c0 f7 d5 16 3e dc c2 b4 bd e3 f6 83 3e c3 11 4a 3b
       0.14730059 -0.08826229 0.25774297 0.003083334
0000d0 1b 85 80 3e 44 40 ef bd 61 8a 8e bd 87 8b f2 3d
       0.2510155 -0.116821796 -0.069599874 0.11843019
0000e0 24 2d e7 bc 6d 5b f4 3d 97 ee 89 be b6 27 26 be
       -0.028219767 0.119315006 -0.26939842 -0.16226086
0000f0 76 a2 4a 3d 65 9b 00 3e c5 e8 9a be 2d 46 c5 3e
       0.04947134 0.12559278 -0.30255714 0.38530102
000100 d7 f2 43 3e d4 98 1c be ab 3b 64 3e 98 34 32 3e
       0.19135605 -0.15292674 0.22288387 0.17402875
000110 1f e5 05 bf ed dc 45 be ba ad 34 3e e1 86 ac 3e
       -0.52302736 -0.19322558 0.17644396 0.33696654
000120 4a 79 f2 3c 11 f6 7c 3d d6 7c 94 bd eb bf 06 be
       0.02959885 0.061758105 -0.07250373 -0.13159148
000130 12 50 64 3d 5f a9 cf bd 97 be 3c 3e b7 da 31 bd
       0.055740424 -0.10139727 0.1843208 -0.043421473
000140 a4 b0 1b 3c d5 62 26 3e b1 c2 2e bc f5 e4 5b 3e
       0.009502564 0.16248639 -0.010666535 0.21474059
000150 93 39 8d bc 55 ef 0f be df 14 b1 3e 46 47 d1 be
       -0.017239368 -0.14056142 0.34586236 -0.4087469
000160 74 0d 04 bd 19 6c 9e 3d 58 cb 6d 3e dd 9a da bd
       -0.032239392 0.07735462 0.232221 -0.10674069
000170 19 ad 89 be 0b 84 7b bd 24 06 10 3c d9 50 80 3e
       -0.26889876 -0.061405223 0.008790527 0.25061682
000180 8d 88 2d be f4 0d bc 3d 2b a4 33 3e 5e cb 03 bd
       -0.16946621 0.09182349 0.17543094 -0.032176368
000190 ea e2 a6 bd d8 74 2b be 92 2b b2 bd 08 0c 61 bd
       -0.08148749 -0.16743791 -0.08699717 -0.054943115
0001a0 99 22 a2 bd 07 3a c2 bd 2a f7 82 be ae 78 d7 3d
       -0.07916755 -0.09483724 -0.25579196 0.10521065
0001b0 06 d3 a8 bd d3 be 84 3d 4c 42 f5 bc 4e b6 d0 3d
       -0.082433745 0.06481709 -0.02993884 0.10191022
0001c0 44 54 dc be e5 78 ad 3c 56 73 b1 bd 16 8b 9f 3e
       -0.4303304 0.021175811 -0.08664577 0.31160802
0001d0 bb 1d 03 3f d5 68 00 3e e8 5b 0f be f2 26 60 3d
       0.5121724 0.1253999 -0.13999903 0.05472464
0001e0 f7 c0 45 bd 17 72 af 3e 01 5f 98 bd a3 54 c8 bd
       -0.04827973 0.3426673 -0.074399956 -0.09781768
0001f0 75 d9 8d be 8c a5 95 3d d1 9d 85 3d c5 94 df bd
       -0.2770497 0.07306966 0.06524242 -0.109170474
000200 69 19 8a be 5e f3 0d 3e 58 99 63 3d 06 49 ed bc
       -0.2697251 0.13862368 0.055566162 -0.028965484
000210 a8 c9 1e 3f 34 a8 03 bf 5c da b8 bc 16 6a e3 3e
       0.62026453 -0.5142853 -0.02256506 0.44416875
000220 17 8b ca be 57 65 9f 3d f9 59 b5 3d 3d 02 dd 3d
       -0.39559242 0.07783001 0.088550515 0.107914425
000230 bd 50 e9 3e e8 5c b1 be f7 37 29 be 29 3e d0 bd
       0.4556941 -0.34641194 -0.16525255 -0.10168106
000240 1c 86 1d 3e 00 f3 50 be 37 5b ba 3d 71 2c 1d 3e
       0.1538319 -0.20405197 0.09099429 0.15348984
000250 91 cb 0f bf f4 83 28 bd 17 c3 7a 3e 05 13 6f be
       -0.5616999 -0.041141465 0.24488483 -0.23347099
000260 f0 1d 92 3e b8 10 b5 be 1c 29 82 be 2c 7b 05 40
       0.28538465 -0.35364318 -0.2542199 2.0856428
000270 b4 aa c0 3e c0 da eb be 39 ec 86 3e f9 b6 be be
       0.37630236 -0.4606533 0.263521 -0.37248972
000280 92 20 87 bc 7b e4 c6 3c ca 8c a6 bb 60 93 b8 3d
       -0.016495023 0.02427887 -0.0050827013 0.090124846
000290 7b 22 51 3e 29 a9 dc 3c 22 54 84 3e af 3e b1 3e
       0.2042331 0.02693613 0.25845438 0.34618136
0002a0 3d b6 8e be 7c 34 08 bf 94 93 b7 3e f9 ec b3 bb
       -0.27873412 -0.53205085 0.3585478 -0.005490896
0002b0 fe de 34 bc cc 8d da bd ea 69 8e bd 2a 8a 03 bf
       -0.011039494 -0.10671577 -0.06953795 -0.51382697
0002c0 6d 82 b8 3d 8d 0b eb bc 00 68 00 be 14 27 14 be
       0.09009252 -0.028692031 -0.12539673 -0.14468032
0002d0 13 51 31 3e 38 6b 2c 3d 91 8e 6f 3e 09 21 c5 3d
       0.17316084 0.04209444 0.23394229 0.096254416
0002e0 67 b8 23 3d ea 24 87 be 91 e7 59 3e 53 2f 0e 3d
       0.03997078 -0.2639535 0.21279742 0.0347131
0002f0 0b 51 3b bf 90 c4 48 3e 7d 68 fc 3d a1 85 c1 be
       -0.73170537 0.19606233 0.12324617 -0.37797263
000300 a4 f8 1e bd f8 c0 42 3e f7 d6 d4 3d 63 fb 78 bd
       -0.03881134 0.19018924 0.10392564 -0.060786616
000310 9f 9d be 3d af 04 12 bf 70 84 2d bf 30 f0 26 bc
       0.093074076 -0.57038397 -0.6778021 -0.010189101
000320 9e 6a ba bd 6e 51 e4 be c1 8e ed 3c 21 9c 8c be
       -0.09102367 -0.44593376 0.028998734 -0.27462867
000330 d8 c4 ed be e2 29 56 be 86 ca 50 bd 74 9c 71 be
       -0.46439242 -0.20914415 -0.05097439 -0.23594838
000340 7a e3 33 3d 2b 0b 79 3d 26 4f 36 bd f9 85 a5 3d
       0.04391811 0.060801666 -0.044509076 0.08082194
000350 f0 9d cc be b3 f0 d2 3d 72 41 ac 3d 31 e0 83 3e
       -0.39964247 0.10299816 0.0841092 0.25756982
000360 25 4e c5 be 5b d1 86 bd 21 b4 9a be 87 e9 64 3f
       -0.38536182 -0.065829 -0.30215552 0.89418834
000370 c2 d5 26 bd d7 61 44 be f3 24 a9 bd 8e df 3d be
       -0.0407312 -0.19177948 -0.08259001 -0.1854231
000380 89 95 a1 bd 17 ff 43 3c 6a 36 d0 be 52 3d 80 be
       -0.0788985 0.011962674 -0.40666515 -0.25046784
000390 a1 c9 07 bd 44 6e a9 bd bc 4a d5 bd c1 5e 02 3f
       -0.033151273 -0.082729846 -0.10414645 0.50925833
0003a0 f1 b2 3f be 0e 53 9e 3e 63 05 84 bd 68 e0 88 3e
       -0.18720604 0.3092274 -0.0644634 0.26733708
0003b0 cf 7f 58 bd c5 d2 59 bd da bd ec 3e a1 aa 32 be
       -0.052856263 -0.05317952 0.46238595 -0.17447902
0003c0 61 bc 0f 3d 51 bc f1 bd 88 7c 25 bf a6 6d cf be
       0.03509176 -0.11803497 -0.64643145 -0.40513343
0003d0 5b 0f 86 3e b0 a2 59 be 54 1f 58 3d 5c 56 8c 3e
       0.2618359 -0.21253467 0.05276425 0.27409637
0003e0 fb 38 b2 3e ac ce df bd 35 5d 26 bf 51 37 aa 3f
       0.34809098 -0.109280914 -0.6498597 1.3298131
0003f0 c2 73 b9 bd f0 60 0d 3e f1 f6 c2 3e 97 a9 0e be
       -0.09055282 0.1380651 0.38079026 -0.13931881

encoder.fc2.bias f4 [32]
000000 7c 90 df 3e 86 50 c3 3e b9 86 96 3e 70 c5 81 3e
       0.4366492 0.38147372 0.2939966 0.25345945
000010 93 8f dd bf 2f 9e f5 3d 1d e1 85 bf d0 87 b0 bf
       -1.730944 0.11993062 -1.0459324 -1.3791447
000020 9a bd d6 be 9a 0b 00 bf c5 9b 98 bf 5d 8f 88 bf
       -0.4194153 -0.500177 -1.1922537 -1.0668751
000030 92 dd af be c8 23 8b bf f3 5b 31 bf b3 b4 a1 be
       -0.34348732 -1.0870295 -0.6928093 -0.31583175
000040 5b 13 b8 3e 0c 7a 30 bf b2 d6 e0 be 3e db 4d 3e
       0.35952267 -0.6893623 -0.439138 0.20103166
000050 e1 41 17 be fc 38 1f bf 22 f6 b3 be e6 e4 f2 be
       -0.14771225 -0.62196326 -0.35148722 -0.4744026
000060 ae 6f ff be be 34 02 c0 ed de 84 bf 78 da 7b be
       -0.49889892 -2.0344691 -1.0380532 -0.24595058
000070 3e 7b b6 be 0c 74 11 bf 4e 31 f5 be 1a 63 0a 3d
       -0.356409 -0.568177 -0.4788918 0.033785917

decoder.weight f4 [829, 32]
000000 49 30 ca bf 8e 3e 6a be 4c 6f 19 3e 5e 53 30 bf
       -1.5795985 -0.22875425 0.14983863 -0.6887721
000010 51 09 5f 3f 01 29 9a bf a7 84 c7 3e 7a 67 2e 3f
       0.8712359 -1.2043763 0.38968393 0.6812664
000020 e2 59 e9 bd 78 a6 ad 3e 5a 03 28 3f 45 b7 8c 3f
       -0.11394097 0.33916068 0.65630114 1.099343
000030 80 f3 04 3e fa 4a c5 3e 12 0e 1f 3f a9 33 0c bf
       0.12983513 0.38533765 0.62130845 -0.5476633
000040 fe 91 1e be b9 55 91 3e cc 4b 7b bf 87 c3 1a 3f
       -0.15485379 0.28385714 -0.9816253 0.604546
000050 ff ba dc be 77 e2 9c be 88 d0 d4 3e 80 91 bd 3e
       -0.43111417 -0.3064153 0.41565347 0.3702507
000060 94 51 50 3e 4e 47 16 3f 2e 92 b0 3e 08 42 d0 3b
       0.2034362 0.5870255 0.34486526 0.006355528
000070 20 66 cf 3e 7c c3 fa bd 6f e1 b3 be 5b fa 26 3e
       0.40507603 -0.12244317 -0.3513293 0.1630644
000080 d0 55 5c bf 51 a8 aa bf 4f 7b 36 bf 67 46 3f bf
       -0.8606844 -1.3332616 -0.71281904 -0.747168
000090 19 cb d6 3e 0c 87 2d bf 8c 56 12 3f b3 72 ba 3e
       0.41951826 -0.6778419 0.5716331 0.36415634
0000a0 41 45 b7 bd ce aa 3d 3f b1 24 00 3f 2e f1 1f bd
       -0.08948756 0.7408875 0.50055987 -0.039048366
0000b0 af b8 df 3e 7e ac 38 3e e5 c4 e9 3e cb b4 43 3d
       0.4369559 0.1803455 0.4565803 0.04777984
0000c0 ad 0d ac 3e b9 4d 48 3f 16 60 7f 3c 0a 68 79 bf
       0.33604184 0.78243595 0.0155868735 -0.97424376
0000d0 92 ce 81 3e c2 7a 8b be c0 5a b0 bd 77 12 0b bd
       0.25352913 -0.27242094 -0.08611059 -0.033953156
0000e0 34 15 ab 3e 8e f8 f8 3e 47 f1 4d 3f 4a 68 42 bf
       0.33414614 0.48627132 0.80446285 -0.7594038
0000f0 c0 fc 36 3f c9 a0 a2 3e ea 7e fe be 08 79 98 bf
       0.71479416 0.31763294 -0.49706203 -1.1911936
000100 98 98 fc bf 6e 65 95 be 4a e7 33 be f9 3d a4 be
       -1.9734068 -0.29178947 -0.17568699 -0.3207853
000110 48 8e 21 3e d1 35 7e bf 32 a4 8e bd 86 f6 19 3e
       0.15776932 -0.9930087 -0.069649115 0.15035447
000120 5d 4c 88 3e 71 5f 1d 3f b2 f9 5e bd f3 66 3c 3e
       0.2662076 0.6147376 -0.054437347 0.18398647
000130 46 5d d4 3c 4d 94 7d bd 26 eb 4a be 80 22 07 bf
       0.025923382 -0.06190901 -0.19816265 -0.5278702
000140 29 08 91 bf 47 d1 f1 3d 27 0f 63 3e 88 6f 2e bf
       -1.1330615 0.118074946 0.22173749 -0.68138933
000150 f9 15 32 bf 7e 99 8e be 3c 58 df bb f3 f9 76 3e
       -0.6956478 -0.2785148 -0.0068159383 0.24118786
000160 f0 e3 9c be c4 16 4f 3e e5 e0 ce bc db 8b ab bd
       -0.30642653 0.20223528 -0.025253722 -0.08376285
000170 ef 98 e9 bc 1a 69 ed 3e ed 42 b6 bd 8e 0e fc ba
       -0.028515307 0.4636925 -0.08899484 -0.0019230412
000180 78 7c dc bf 83 e4 f6 be bf 65 0b 3e ba 4c cc bd
       -1.7225485 -0.48221216 0.13613032 -0.09975572
000190 e1 ee 4a 3e 67 2c 86 bf 26 1c e3 3e cb 00 ba 3d
       0.19817688 -1.04823 0.44357413 0.090821825
0001a0 7e 32 f1 3e d9 33 94 3e 00 dd 5b bd d6 e2 aa 3e
       0.47108835 0.28945807 -0.05367756 0.33376187
0001b0 e6 34 c4 3f ab 8d 62 be 43 a7 2c 3e 76 ad 08 bf
       1.5328643 -0.22124355 0.1686068 -0.5338968
0001c0 ff 21 e9 be a6 4d ee 3e 66 30 aa 3e 2a 2a 26 bf
       -0.4553375 0.46543616 0.3324005 -0.6490809
0001d0 f5 cc 1e bf a8 e5 b6 3e 0e 5d f0 bd d3 fa 5b 3d
       -0.6203149 0.3572209 -0.11736499 0.053706
0001e0 aa fa 26 be e1 cb 56 3e 68 03 25 3e 05 e3 f5 3e
       -0.16306558 0.20976211 0.1611458 0.48024765
0001f0 5c 18 8a 3e 42 96 8f be 62 f0 be bd b2 74 e7 3d
       0.2697171 -0.28044325 -0.09323193 0.11301555
000200 56 4f 86 bf 70 91 8a bf b9 4d 95 bf f1 7a 57 3f
       -1.0492961 -1.0825634 -1.1664344 0.8417197
000210 c3 b2 fb 3e 4a cd 8a be f3 88 d3 3e 62 55 18 3f
       0.49159822 -0.27109748 0.4131542 0.59505284
000220 5a 05 49 3f 83 b3 cb 3e 3c 35 e2 3e 54 33 97 3d
       0.7852379 0.39785394 0.4418124 0.07382837
000230 02 7c 87 3f 1b a4 bb 3f 0a 6c 91 be d5 20 a3 bf
       1.0584719 1.4659456 -0.2840274 -1.2744395
000240 50 83 fa bf 48 d8 1c 3f a2 ab f5 bf dd a0 55 bf
       -1.9571323 0.6126752 -1.9193003 -0.8344858
000250 ac 46 31 bf 0b 5d f3 bf 44 20 42 bd 12 1b 89 3f
       -0.6924846 -1.901277 -0.047394052 1.0711386
000260 29 84 65 3e 49 0e 2f 3f b0 a9 5b 3c 77 e0 be bf
       0.22413696 0.6838117 0.013407156 -1.4912251
000270 6e 34 c8 3e a4 e3 33 3f 01 c4 3b bf 8e 8f 5b be
       0.391025 0.7026923 -0.73345953 -0.2144148
000280 3b eb d8 bf e7 3a 21 bf 58 3e 90 bf 56 b3 53 bf
       -1.6946787 -0.629805 -1.1269026 -0.8269552
000290 96 49 e9 3d 1a 0f 21 3e 84 3f 0c bd 4c 74 3a 3f
       0.113909885 0.15728417 -0.03424026 0.72833705
0002a0 32 53 5a 3f ae 2f 47 3f 0a 69 96 3e 8d 41 60 bd
       0.85283196 0.7780713 0.29377013 -0.054750014
0002b0 60 e1 ea bc ae b4 59 3f eb ab 58 3f c6 d4 81 bf
       -0.02867192 0.8504132 0.84637326 -1.0143058
0002c0 53 57 4d bc 21 e3 b9 3e 1d 2a 04 bf 62 75 96 be
       -0.012533027 0.36306098 -0.5162676 -0.2938643
0002d0 7d d2 31 3f a6 d2 bc be 69 b2 e1 3e 6b cd 49 3f
       0.69461805 -0.36879462 0.4408143 0.7882907
0002e0 bf d6 c5 3e 83 dd 13 3e be 58 c9 3e f3 34 15 bf
       0.386404 0.14439969 0.39325517 -0.5828392
0002f0 3d 1e 8d be d1 c3 11 3f 81 dc 24 3c 71 f5 b9 be
       -0.27562132 0.5693942 0.010062338 -0.3632007
000300 97 65 56 bd a2 75 f9 bf de 42 a0 3e f5 16 83 bf
       -0.052342977 -1.9489024 0.31301016 -1.0241381
000310 51 cd 02 3f 87 b6 2d be 63 70 97 3d 8c f2 d3 3e
       0.5109454 -0.1696416 0.07394483 0.41395986
000320 78 94 85 3e 63 1f e7 be 28 03 11 3f eb d3 b6 be
       0.26089835 -0.45141134 0.5664544 -0.35708556
000330 fa c1 4d 3f b3 f8 09 3f 9b 6a 58 be 22 bb 7a bf
       0.8037411 0.5389511 -0.21134417 -0.9794179
000340 4f 2a 90 bf a1 ef fb 3e 6f 08 e1 3e 43 ea 8b be
       -1.1262912 0.4920626 0.43951747 -0.27327165
000350 d6 a8 de be f8 ba ca 3e 9c e8 a1 be a1 ad 1f 3f
       -0.43488187 0.3959577 -0.3162278 0.6237431
000360 32 f8 8f 3e 54 e6 04 3f b5 c0 b7 3e 4f 58 ef be
       0.28119045 0.5191395 0.3588921 -0.46747062
000370 08 a2 f5 3d 52 f5 04 be a4 05 a7 be 54 17 04 bf
       0.11993796 -0.12984207 -0.3262149 -0.51598096
000380 6d a9 3b bf 62 7f 5d be 69 8f 71 be b6 1a 5f bf
       -0.733054 -0.21630624 -0.23589863 -0.8715013
000390 df 94 b2 3d f6 bb 8c bf ff 78 0e 3e 43 11 e5 3e
       0.08719801 -1.0994861 0.13913344 0.44739732
0003a0 67 20 1d 3d e1 23 97 bd 8e 28 18 3e 18 5c 86 3e
       0.03836098 -0.0737989 0.1485922 0.26242137
0003b0 c5 ea 1e 3f 3c ec 6c be a4 44 f7 bc 2c dd 34 3e
       0.6207698 -0.23136991 -0.030184098 0.17662495
0003c0 9a e1 99 be 23 46 9c 3d 17 c2 fe be a0 68 b3 3c
       -0.30054933 0.07630565 -0.49757454 0.021900475
0003d0 80 9c 77 3e 95 d0 2b bf 2b 85 e0 be 49 22 d7 3e
       0.24180794 -0.67115146 -0.438516 0.42018345
0003e0 bf d4 9b be c1 8c 49 3e 68 bb a4 3e 8c 7d 12 3f
       -0.3043575 0.196826 0.3217423 0.5722282
0003f0 da e7 fd bd 12 85 35 3f 18 77 97 be 53 e8 b2 be
       -0.12397738 0.70906174 -0.2958305 -0.34942874

decoder.bias f4 [829]
000000 4a a8 49 bf 1b 4b 9d be 91 f5 06 bd e5 a8 7f be
       -0.78772414 -0.30721363 -0.032949034 -0.24966772
000010 77 e9 d8 be fc b0 fa bd df 62 10 bf 71 53 2b be
       -0.4236562 -0.12240788 -0.56400865 -0.16731049
000020 f3 78 f6 be a3 68 3c bf 0a a5 50 bf d3 df 37 bf
       -0.48139152 -0.7359716 -0.8150183 -0.71825904
000030 fd ce 1b bf 24 21 0a bf cf bb 3c bf cf 01 14 bf
       -0.60862714 -0.5395682 -0.73724073 -0.5781526
000040 d2 52 8e be 42 70 fc be c6 c2 28 be 1d c3 95 be
       -0.27797562 -0.49304396 -0.1648055 -0.29250422
000050 b5 df 00 bf 3a ed 85 bf 60 b0 ea be ea ec 8e bf
       -0.5034135 -1.0463021 -0.45837688 -1.116605
000060 91 ec 10 bf 63 fa 88 be 42 d1 6a be ff f9 b5 be
       -0.5661097 -0.2675353 -0.22931388 -0.35542294
000070 f5 39 89 be f3 95 6e bf 3c 8c 91 bf c8 c7 90 3c
       -0.2680203 -0.93197554 -1.1370921 0.017673388
000080 bb f4 f8 bc 40 e8 f8 be e2 f7 0f bf 7b da 36 bf
       -0.030390134 -0.48614693 -0.56237614 -0.71427125
000090 26 44 33 bf 12 96 2a bf f0 b6 07 bf 0a 1a 7a be
       -0.7002586 -0.6663524 -0.53013515 -0.24423996
0000a0 9e f3 9b bf b6 f0 0c bf 87 fb 4e bf e7 b9 8c bf
       -1.2183721 -0.55054796 -0.8085255 -1.0994233
0000b0 17 db 49 be d2 c9 b2 be e6 46 58 bf 95 3b 23 bf
       -0.19712482 -0.34919602 -0.8448318 -0.6376279
0000c0 06 10 2b bf 98 b8 83 be 08 2b c9 3d a3 77 ac be
       -0.66821325 -0.2572677 0.09822661 -0.33685026
0000d0 7d 01 01 bf 69 3e f7 be 14 fd df be 7c 27 f4 be
       -0.50392896 -0.48289803 -0.4374777 -0.47686374
0000e0 bc f2 11 bf a6 59 bd be 51 59 0b bf 04 c1 1a bf
       -0.5701101 -0.3698246 -0.5443316 -0.6045077
0000f0 8a b7 c8 be d3 52 f6 be 4f 4a 12 bf 16 0c 5a bf
       -0.3920253 -0.48110065 -0.57144636 -0.8517469
000100 f8 ae 3f bf 47 cb 5e bf b4 a0 8a bf b5 45 53 bf
       -0.74876356 -0.87028927 -1.0830293 -0.8252824
000110 5a 46 5a bf b3 0d 95 bf 8d f0 ad be cc a2 31 bf
       -0.852636 -1.1644806 -0.33972588 -0.69389033
000120 a2 e7 72 bf ae b2 2e bf 0b 02 29 bf 8d d0 16 bf
       -0.94884694 -0.68241394 -0.6601874 -0.58911973
000130 01 44 85 bf 39 08 84 bf 19 e1 0b bf 4a 75 9d bf
       -1.0411378 -1.0315009 -0.54640347 -1.2301419
000140 43 af 9a bf 85 8c 72 bf 86 a8 f6 bf ad fc 15 bf
       -1.2084736 -0.94745666 -1.9270179 -0.5858868
000150 e1 ef 8c bf fa 55 6d bf e6 06 72 bf 76 29 0c bf
       -1.1010705 -0.92709315 -0.94541776 -0.54750764
000160 e2 7d a1 bf ad 39 dc be c2 57 4c bf 8c d3 9b be
       -1.2616541 -0.43012753 -0.7982141 -0.30434835
000170 cc fd 45 bf 41 0b 06 bf 52 86 11 bf 32 fd 32 bf
       -0.7734039 -0.5236092 -0.5684558 -0.69917595
000180 92 b9 12 bf 18 b1 c7 be 25 81 5f be 25 e6 16 bf
       -0.5731441 -0.390023 -0.21826608 -0.5894492
000190 ee a3 6f bf 8c 6a c3 be fd 5c 38 bf 15 dd fc be
       -0.9360951 -0.38167226 -0.7201689 -0.49387422
0001a0 33 f5 08 bf c2 5e 11 bf 30 79 67 bf 19 ec 9d bf
       -0.53499144 -0.56785214 -0.9041929 -1.2337676
0001b0 d2 d1 80 be 2c 96 75 bf ba ad 9e bf 15 1d 33 bf
       -0.2516008 -0.9593227 -1.2396767 -0.6996625
0001c0 94 cc 29 bf e7 a2 b3 bd 1d cf 37 bf 53 dc 36 bf
       -0.66327786 -0.087713055 -0.71800405 -0.7142994
0001d0 2b f7 72 bf 52 c2 06 bf c5 2d 19 bf 21 1d 61 bf
       -0.949084 -0.5264026 -0.59835464 -0.8793507
0001e0 ea 10 30 bf 94 5c 83 be b8 4f 22 bf 43 1c 92 bf
       -0.6877581 -0.2565657 -0.6340289 -1.1414875
0001f0 fa 01 5e bf d5 ca 4d bf 4a 67 6f bf 79 f2 7b bf
       -0.86721766 -0.8038762 -0.9351698 -0.9841686
000200 6e 1f 58 bf 5c 09 07 be 33 34 0a bf 8d 68 d6 be
       -0.8442296 -0.13187164 -0.539859 -0.4187664
000210 35 c2 14 bf 31 a9 d0 be d7 24 22 bf 1c 3f 1e bf
       -0.58108836 -0.40754083 -0.63337463 -0.6181505
000220 24 33 d2 be d0 57 4f bf fb af 67 bf ca 4f 95 be
       -0.41054642 -0.80993366 -0.905029 -0.29162437
000230 fd a0 52 bf 7a 92 8a bf f1 fb 00 bf b5 18 ad bd
       -0.822769 -1.0825951 -0.5038443 -0.08451978
000240 14 85 60 be ab df f1 be 8f 78 1b bf 1f 4d 31 bf
       -0.21925765 -0.47240958 -0.6073083 -0.692583
000250 f7 20 50 bf 0e bb 4c be 9b 60 66 be 55 dd 2a bf
       -0.813003 -0.1999323 -0.2249779 -0.66743976
000260 d3 d4 a7 3c ac fb 2c bf 8b 9c 35 bf f9 99 c4 be
       0.020487225 -0.6757152 -0.7094199 -0.38398722
000270 be 20 51 bf df 14 5a bf 13 e6 30 bf bb 09 5c bf
       -0.81690586 -0.85188097 -0.69101065 -0.8595235
000280 5b 8e 58 bf 35 71 41 be 16 59 4f bf 72 9f d8 be
       -0.8459222 -0.18890841 -0.8099531 -0.42309147
000290 9f ff 2d bf 59 97 83 bf b2 fc 43 bf e4 bf 32 bf
       -0.6796817 -1.0280563 -0.7655746 -0.6982405
0002a0 a8 82 8f bf c7 82 ea bd 0f 31 c2 be db c5 15 bf
       -1.1211748 -0.11450725 -0.37928054 -0.5850503
0002b0 0f 47 17 bf 4e 51 0f bf 76 45 44 bf ea 28 5e bf
       -0.590928 -0.55983436 -0.7666849 -0.8678118
0002c0 ce 19 86 bf 41 6a ce be dc fc 5a bf 68 61 18 bf
       -1.0476625 -0.4031544 -0.8554208 -0.5952363
0002d0 6e e4 00 bf c6 fa 2d bf 82 0e ba be 56 90 28 bf
       -0.50348556 -0.67960775 -0.36339194 -0.6584524
0002e0 fd 9e 45 bf cf b5 25 bf 90 d0 36 bf 12 53 24 be
       -0.7719572 -0.6473054 -0.7141199 -0.16047314
0002f0 b0 47 be be c1 63 f0 be 6a 83 58 bf f7 b8 68 bf
       -0.37164068 -0.46951106 -0.8457552 -0.90907234
000300 3e 49 13 bf c4 d3 47 bf fc 77 3f bf 19 80 93 bf
       -0.57533634 -0.78057504 -0.74792457 -1.1523467
000310 81 d8 2e bf 76 80 fb be 04 8e 50 bf ce ad 90 be
       -0.6829911 -0.49121445 -0.814667 -0.28257602
000320 af 98 5e bf 1d cc 7e bf d1 21 16 bf bf 73 4c bf
       -0.86951727 -0.995302 -0.5864535 -0.79864115
000330 54 c5 d7 be 34 e9 14 bf a5 7f 11 bf dd b0 7d be
       -0.42142737 -0.5816834 -0.56835395 -0.24774499
000340 1d 13 8c be 3e fc 0b bf 66 c6 09 bf 03 71 62 be
       -0.27358332 -0.54681766 -0.53818357 -0.22113423
000350 b6 09 12 bf 64 4d bb be ce 6d 45 bf a0 b7 28 bf
       -0.5704607 -0.36582482 -0.77120674 -0.6590519
000360 6f f1 2a bf 92 cc ff be 33 46 be be 9c e0 35 bf
       -0.6677465 -0.49960762 -0.37162933 -0.7104585
000370 a8 de 26 bf c8 5d b7 be 36 e3 39 bf f3 71 a9 be
       -0.65183496 -0.35813737 -0.7261232 -0.3309475
000380 a2 ac 03 bf ef fe 1a bf 8d 48 49 bf c4 a6 0d bf
       -0.5143529 -0.6054525 -0.7862633 -0.5533259
000390 7a fb 7b bf eb b2 38 bf 09 32 83 be 90 24 45 bf
       -0.984306 -0.7214801 -0.2562411 -0.77008915
0003a0 8b aa 4c bf f1 f3 77 bf d1 87 39 bf af 03 32 bf
       -0.7994773 -0.968566 -0.72472864 -0.6953687
0003b0 66 b2 7b bf 3e 5a 17 bf 3d 56 39 bf 23 96 de be
       -0.9831909 -0.59122074 -0.72397214 -0.4347392
0003c0 f0 14 1c bf e4 ba 16 bf e7 66 33 bf b2 1b bc be
       -0.6096945 -0.5887892 -0.7007889 -0.3673988
0003d0 31 29 96 be 7a 6d 2d bf 1d ca 13 be 2a e4 3d be
       -0.29328302 -0.6774517 -0.14432569 -0.18544069
0003e0 40 20 08 bf f0 2d 12 bf 98 c2 72 be 95 ce 28 bf
       -0.5317421 -0.57101345 -0.23707044 -0.6594022
0003f0 b1 7c ac be 3c f7 b4 be a5 1b 1a bf 87 16 d0 be
       -0.33688882 -0.35344875 -0.6019843 -0.40642187
