models/UncalibratedXKCDModel/model.pth (torch_old, 129926 bytes, 9 tensors)

availabilities f4 [1, 829]
000000 5e db 82 c0 3b c8 0e c0 10 0a 94 bf b6 c5 b0 bf
       -4.089278 -2.230971 -1.1565571 -1.3810337
000010 32 7e a0 c0 e0 31 1d c0 47 56 00 c0 6a 98 71 bf
       -5.0154047 -2.4561691 -2.005266 -0.9437319
000020 bd f7 72 c0 f8 c5 6f c0 d2 6f 58 bd a7 1e 79 c0
       -3.7963707 -3.746458 -0.052841015 -3.8924959
000030 18 d3 77 c0 4d 15 f3 bf 74 d8 ca bf 07 02 e0 bf
       -3.8722591 -1.8990875 -1.5847306 -1.7500619
000040 96 0b 87 c0 57 86 26 c0 27 06 55 c0 15 fc ac bf
       -4.2201643 -2.6019495 -3.3285005 -1.3514429
000050 e0 21 28 c0 60 cf e2 bf 91 d0 04 c0 c8 6a 48 c0
       -2.6270676 -1.7719536 -2.07523 -3.1315174
000060 26 b6 4a c0 ed e8 13 c0 eb 1c cf bf 24 8f e7 bf
       -3.1673675 -2.3110917 -1.61807 -1.8090558
000070 35 a9 50 c0 4d 35 a3 c0 fa fc a2 c0 e6 27 b9 bf
       -3.2603276 -5.1002564 -5.093381 -1.4465301
000080 c7 25 cb bf f2 b1 fb bf 6a 02 13 c0 98 2b 4d c0
       -1.5870904 -1.966368 -2.2970223 -3.2057858
000090 f5 56 c9 3f 2f cc 53 c0 d8 80 8a c0 09 1f b2 bf
       1.5729662 -3.3093374 -4.328228 -1.3915721
0000a0 34 a4 19 41 6f da 27 c0 95 44 3c c0 f4 0e 35 c0
       9.602589 -2.6227071 -2.941686 -2.8290377
0000b0 e0 ca 3a 41 d3 34 d3 bf c6 58 9d bf 85 d8 4d c0
       11.67453 -1.6500496 -1.2292717 -3.2163403
0000c0 cf dc 69 c0 2b d1 ce bf ef 70 cc bf 5d 14 07 c0
       -3.654102 -1.6157583 -1.5971965 -2.1106179
0000d0 89 64 36 c0 8a a8 fb bf 42 9e 72 c0 21 18 59 c0
       -2.8498862 -1.9660809 -3.7909093 -3.3920977
0000e0 2b 73 5c c0 5c 78 1f c0 bd 61 5f c0 52 5c 39 c0
       -3.4445293 -2.4917212 -3.4903405 -2.8962598
0000f0 13 5b c0 bf d0 60 1a c0 89 5a 27 c0 29 1f 23 c0
       -1.5027794 -2.412159 -2.6149008 -2.5487769
000100 dd bc c2 bf ca 9d 8a c0 09 9f 22 c0 d2 52 84 c0
       -1.5213886 -4.3317614 -2.5409567 -4.13511
000110 f4 7f 40 c0 e4 06 76 bf f2 ac e4 bf 20 32 19 c0
       -3.0078096 -0.96104264 -1.7865279 -2.3936844
000120 37 94 8e c0 d9 31 15 c0 65 21 16 c0 bf 62 30 c0
       -4.4555926 -2.3311675 -2.3457882 -2.756027
000130 e0 6f 96 c0 87 2f 8f c0 cf 64 f4 bf 8f 6a 81 c0
       -4.7011566 -4.4745517 -1.9093264 -4.0442576
000140 c4 93 15 c0 81 59 1c c0 f4 96 37 c0 6d 55 19 c0
       -2.337144 -2.442963 -2.8685884 -2.395839
000150 b6 3e 9c c0 e5 e8 85 c0 b2 78 77 c0 42 50 14 c0
       -4.882655 -4.1846795 -3.8667417 -2.3173985
000160 f7 c2 6b c0 ed b5 34 c0 54 90 96 c0 4c 51 28 c0
       -3.6837747 -2.8236039 -4.705118 -2.629962
000170 62 58 45 41 e9 51 4f c0 21 eb 6e c0 53 72 64 c0
       12.334078 -3.2393744 -3.7331011 -3.5694778
000180 b5 62 8d c0 73 c5 24 c0 86 ee 0f c0 27 d6 54 c0
       -4.418299 -2.5745513 -2.2489333 -3.3255708
000190 3e d1 66 c0 b4 81 7c c0 c0 11 47 c0 a6 a4 89 c0
       -3.6065211 -3.9454165 -3.1104584 -4.3013487
0001a0 84 46 80 c0 e3 04 6a c0 2a a4 28 c0 99 b7 95 c0
       -4.008608 -3.6565483 -2.6350198 -4.678662
0001b0 cc 46 2e c0 cd 86 43 bf 64 d5 52 bf 66 f1 73 c0
       -2.723071 -0.76377565 -0.8235686 -3.8116088
0001c0 b0 ed 1a c0 e0 34 75 c0 c5 bf 8b c0 50 3c 8c c0
       -2.4207573 -3.8313522 -4.3671594 -4.3823624
0001d0 d1 c4 65 c0 39 88 1d c0 4f 20 7c c0 9b 6f 7e c0
       -3.5901377 -2.4614394 -3.939472 -3.9755619
0001e0 81 a0 5c c0 6f 08 0c c0 88 37 a2 c0 c7 13 93 c0
       -3.4472964 -2.1880147 -5.0692787 -4.596164
0001f0 37 90 30 c0 66 21 2a c0 96 53 5e c0 fe e9 80 c0
       -2.7588022 -2.6582885 -3.4738517 -4.0285635
000200 e0 26 92 c0 ed d2 1b c0 ad 5b 5d c0 e5 27 db bf
       -4.5672455 -2.434749 -3.4587204 -1.712155
000210 25 e6 26 c0 5e eb 58 c0 c3 1d e3 bf f8 55 09 c0
       -2.607797 -3.3893657 -1.7743458 -2.145872
000220 d6 c7 ae bf 1e 83 3d c0 ca 7d a4 c0 fe d3 26 c0
       -1.3654735 -2.9611278 -5.140355 -2.606689
000230 c7 8b 4e c0 6d af 6e c0 e1 c7 0d c0 ae 7a 0b c0
       -3.2272813 -3.7294571 -2.2153246 -2.1793628
000240 ca 39 fd bf 95 d9 29 c0 df 78 1f c0 b0 30 41 c0
       -1.9783261 -2.6539052 -2.4917524 -3.0185966
000250 9f 20 54 c0 44 cd d8 bf 6e 55 bf bf 51 c2 1e c0
       -3.314491 -1.6937642 -1.4947946 -2.4806101
000260 af 36 d6 bf 3f 92 0a c0 d0 11 41 c0 e2 28 4c c0
       -1.6735438 -2.1651762 -3.0167122 -3.1899953
000270 22 5b 77 c0 e9 e5 82 c0 9c 7a 40 bf ca 7b 08 c0
       -3.8649373 -4.090565 -0.7518709 -2.1325555
000280 c4 c1 cc 40 ed 7c 28 c0 50 2a 81 c0 92 54 05 c0
       6.398653 -2.6326249 -4.036415 -2.0832868
000290 34 69 76 c0 cb 27 88 bf 43 5f 3b c0 07 84 6e c0
       -3.850171 -1.0637144 -2.9276893 -3.7268083
0002a0 55 87 af bf 76 a0 ec bf 85 37 67 c0 2d dd 7f c0
       -1.3713175 -1.8486469 -3.6127636 -3.9978745
0002b0 ab 7e 77 c0 2b f5 57 c0 12 19 68 c0 af 88 92 bd
       -3.8671062 -3.3743389 -3.6265302 -0.071549766
0002c0 4f b8 1a bf a8 8a 44 c0 0b 5a 30 c0 31 69 72 c0
       -0.6043748 -3.070963 -2.7554958 -3.7876704
0002d0 ab a4 62 c0 ae 0e 42 c0 ac 16 f8 bf b0 3e e7 bf
       -3.5413005 -3.032146 -1.9381919 -1.8066006
0002e0 b6 f2 0d c0 e3 25 28 c0 41 ee 5e c0 2e 4b 62 c0
       -2.217939 -2.6273124 -3.4832919 -3.5358386
0002f0 a4 e3 d4 bf a9 de c9 bf 66 a4 6e c0 9b 76 88 c0
       -1.663197 -1.5771075 -3.728784 -4.264478
000300 69 27 91 c0 d5 68 21 c0 22 05 52 c0 40 00 f3 bf
       -4.536061 -2.5220234 -3.2815633 -1.8984451
000310 4d 2c 39 c0 03 6a e3 bf 1b f6 93 bf 50 dd 97 c0
       -2.893329 -1.7766727 -1.155948 -4.7457657
000320 09 3f 44 bf 34 bb 78 bf ab 7c 5b c0 78 fc 1b c0
       -0.76658684 -0.9716065 -3.4294841 -2.4372845
000330 ea 77 1e c0 87 37 3b c0 db e1 04 c0 28 05 fb bf
       -2.476069 -2.9252641 -2.0762851 -1.9610949
000340 e6 f0 e2 bf 07 d5 c5 bf 4b 2a 33 c0 d3 1b 18 c0
       -1.7729766 -1.5455636 -2.7994564 -2.3766983
000350 12 e1 5d c0 0f 12 1b c0 05 e6 52 bf 9b 9e 40 c0
       -3.4668622 -2.4229772 -0.8238223 -3.0096805
000360 48 da 64 c0 42 d2 07 c0 4b 44 3d c0 c2 d9 14 c0
       -3.5758228 -2.122208 -2.9572933 -2.325791
000370 5d 3c 12 c0 98 15 13 c0 c3 a3 0f c0 80 a9 08 c0
       -2.2849343 -2.298193 -2.2443702 -2.1353455
000380 44 81 fa bf a5 46 04 c0 a3 b9 34 c0 aa 14 ce bf
       -1.9570699 -2.0668118 -2.8238304 -1.6100056
000390 e4 dd 7d c0 df 0b 91 c0 be 33 b9 bf 61 82 b1 bf
       -3.9666681 -4.532699 -1.4468915 -1.3867913
0003a0 fa 4e 21 c0 42 0d 88 c0 4f f6 75 c0 04 a8 33 c0
       -2.5204453 -4.2516184 -3.8431585 -2.8071299
0003b0 2d 0a 3f c0 ca 5a 12 c0 13 8a f8 bf 9b 5e 65 c0
       -2.984996 -2.2867913 -1.9417137 -3.5838993
0003c0 f2 7b 1d c0 40 4a 5f c0 a8 ce 4d c0 4d 39 0f c0
       -2.46069 -3.4889069 -3.2157383 -2.2378724
0003d0 2a bf 4f c0 13 d2 59 c0 0c 3c cd bf 14 d0 1f c0
       -3.2460427 -3.403447 -1.603395 -2.497075
0003e0 9a 3f 1f c0 62 00 49 c0 7d b9 68 c0 87 72 e3 bf
       -2.488257 -3.1406484 -3.6363213 -1.7769326
0003f0 c9 fe 0d c0 48 a9 54 c0 f0 73 2f c0 c5 8b 49 c0
       -2.2186759 -3.322832 -2.7414513 -3.1491559

encoder.fc0.weight f4 [32, 54]
000000 7c 35 fa bf 36 c8 87 3f cf fe db be 3f 1d 44 3f
       -1.9547572 1.0607975 -0.4296784 0.76607126
000010 5e 0d 47 bf ee 8f ff 3e a2 54 e5 be 8c b8 73 3f
       -0.7775477 0.49914497 -0.44791132 0.9520347
000020 98 a6 c5 3d 78 b6 91 3f cc fe 95 3e 6d 12 bc 3e
       0.09650916 1.138381 0.29295957 0.36732808
000030 d9 6c 94 bd 0a 27 f6 3e 11 65 8f 3e 32 ba c0 3e
       -0.072473235 0.4807666 0.28006795 0.37642056
000040 89 fb b5 3d e5 93 86 3d a8 3f 38 40 29 9d f3 bf
       0.08885867 0.065711774 2.8788853 -1.9032336
000050 6e 40 0e 3d 34 a4 de be d2 50 61 3f 44 be d0 be
       0.034729414 -0.43484652 0.88013947 -0.4077016
000060 fc 70 fe be 0a f5 24 3e 34 bb 42 be 7c 12 f9 3d
       -0.49695575 0.161091 -0.19016725 0.12161729
000070 68 63 d7 3e 36 ba 89 bd fd ff dd 3e be 03 34 3e
       0.42068028 -0.0672497 0.43359366 0.17579553
000080 ae 9a eb 3d ff a7 2f be fd 0f cc be ff 94 5b 3f
       0.11504112 -0.17153929 -0.39855948 0.85774225
000090 50 93 1d 40 46 47 af 3e e0 3d b7 3e 9f e3 5d bf
       2.4621162 0.34234065 0.35789394 -0.8667545
0000a0 81 e9 0a be a6 46 4b 3d c9 c6 c8 3d 26 41 60 bd
       -0.13565637 0.049627922 0.0980354 -0.05474963
0000b0 10 83 7d bd a2 92 84 c0 fe 8c 64 3e 27 bb 30 be
       -0.06189257 -4.1428995 0.22319409 -0.17258893
0000c0 be 9e 6d 3f e5 26 9c bf 6e a3 9f 3e 43 dd c1 3e
       0.92820346 -1.219937 0.31179374 0.37864122
0000d0 6d 2c 6f 3d e5 a6 97 be f2 7f bf bf a7 2a d6 be
       0.058391977 -0.29619518 -1.4960921 -0.41829416
0000e0 54 26 f6 3c 38 82 30 3f fa 45 14 3e 1c 87 8d 3f
       0.030047573 0.689487 0.14479819 1.1056857
0000f0 76 d7 20 bf d7 1b 27 3f 08 ea bf 3e d5 7d 3f 3f
       -0.6282877 0.65276855 0.3748324 0.7480138
000100 8b a3 ba be 95 fd ef 3e 8c ee 80 3d c2 1f d4 3c
       -0.36452898 0.46873155 0.06295499 0.02589405
000110 cb 98 25 3f 07 66 70 bd 20 3f 23 3e 3a 4d f9 bd
       0.6468627 -0.05869105 0.15942049 -0.12172933
000120 b0 de 26 40 35 9b 75 3f aa 2d 7a bf f2 7a b8 bf
       2.6073418 0.9593995 -0.9772593 -1.441252
000130 75 bf 34 3f 1b fe b4 3d 56 a6 3b 3e 8b d3 c7 be
       0.7060464 0.08837529 0.18325171 -0.39028582
000140 0d c1 a9 3e a0 2e 70 3c e8 39 ce 3f 2b b6 ae 3e
       0.331551 0.014659554 1.6111422 0.34123358
000150 be 3d e1 3e 71 c4 94 3f c3 eb fa be ca 67 3d 3e
       0.43992418 1.1622449 -0.49007997 0.18496624
000160 d6 db 82 be 8c 6d a0 3e c3 0b d6 be d2 c2 20 3f
       -0.25558347 0.31333578 -0.41805848 0.6279727
000170 63 c1 eb be 96 bd ac 3e ee e4 4a bb 2a 68 98 3e
       -0.4604598 0.33738393 -0.0030959207 0.2976697
000180 63 fd 2d be e9 99 88 be a9 3d 02 3e fd 4b 5d 3f
       -0.1699119 -0.26679924 0.12718834 0.86444074
000190 e4 cf 17 bf 33 0f b8 bd f7 36 22 bf e4 0d 2d 3e
       -0.5930159 -0.08987274 -0.6336512 0.1689983
0001a0 1c 2b b8 3e 2e b9 ab be c2 f7 39 3e e9 20 8e 3d
       0.3597039 -0.33539718 0.18160918 0.06939871
0001b0 54 81 dd bd 9a 5c 56 40 4e 0d a9 3f df 90 6d bf
       -0.10815683 3.349402 1.3207185 -0.9279918
0001c0 61 c1 8d bf 5a 9f 58 3f d2 3f 6d bd d7 5e b0 be
       -1.107464 0.8461815 -0.057922192 -0.34447357
0001d0 68 0f 45 3e 39 56 23 3f 7d f0 fa bf 53 7f 32 3f
       0.19244158 0.6380344 -1.9604641 0.6972553
0001e0 ef f1 42 3f 42 fd 90 bd 7f 6a 46 be 82 c8 8c 3e
       0.7615041 -0.07079555 -0.19376563 0.27496725
0001f0 cd 69 df 3c b8 ec 89 be 1b 16 db bf a4 4a d5 3c
       0.02727213 -0.26938415 -1.7116121 0.026036568
000200 ea 18 58 be f6 08 0f bf c6 bf 99 3e c6 cb 05 bf
       -0.21103254 -0.5587305 0.30029124 -0.5226406
000210 9e c7 43 3e 8e 34 59 be ae 99 16 3e 4e 66 bb 3d
       0.19119117 -0.21211454 0.14707062 0.091503724
000220 4b 9c 28 40 bc f4 a6 bf 07 ee 3b be 7f a5 bd be
       2.6345394 -1.3043437 -0.18352519 -0.37040326
000230 b9 f4 8e bf 42 90 01 3e 83 f9 3c be 4c ee b6 be
       -1.1168433 0.12652686 -0.18454556 -0.3572868
000240 a3 96 31 3f eb b6 81 3f 8d 64 70 bf 6a c0 9a 3e
       0.6937048 1.0133947 -0.9390343 0.30224925
000250 05 86 8b be 45 ac 82 3e 47 8b 29 3e b6 f5 88 bd
       -0.27250686 0.25522056 0.16557036 -0.06687491
000260 28 89 50 3e f6 36 a6 3f 51 b1 e4 bf 4b c0 f0 3e
       0.20364821 1.2985523 -1.7866613 0.47021708
000270 8e a6 03 bf 9b 31 3d 3f 1a 75 89 bf 41 14 a7 bd
       -0.5142602 0.73903817 -1.0738862 -0.0815816
000280 b5 d0 da 3e b0 43 c5 be ad dd a6 bf cf b1 0a 3e
       0.42737356 -0.38528204 -1.30364 0.13544391
000290 6e 31 69 bd a2 11 77 be 53 48 39 3f cd b5 27 3e
       -0.056931905 -0.2412782 0.72375983 0.16377945
0002a0 fa f1 be be 79 0c 53 be 75 52 9e 3e 6a 9f ea 3e
       -0.37293988 -0.20610227 0.30922285 0.45824748
0002b0 08 e6 f0 be 4b 91 8a 3d de 02 a9 3e 93 fe 95 3e
       -0.470505 0.06765994 0.3301 0.29295787
0002c0 59 cf 85 be e3 63 00 be a8 83 a9 be b4 a3 84 bb
       -0.26134756 -0.12538104 -0.33108258 -0.0040478352
0002d0 5c db 56 bf 69 f4 b3 3e ef bc 3d 3e 6d 82 d7 ba
       -0.83928466 0.35147408 0.18529104 -0.0016442068
0002e0 33 6d 2c bf dc 30 05 3f 37 ef b4 bd 4e 3d 8c 3e
       -0.67354125 0.5202768 -0.08834689 0.27390522
0002f0 f1 91 77 3d b7 27 af bd 93 c7 89 3e 8a 3a e1 3e
       0.060441915 -0.08552497 0.26910076 0.43989974
000300 d9 b3 6d 3d d4 00 f2 3e ff 6a 22 3e c7 fa 1d 3f
       0.058032844 0.47266257 0.15861128 0.6171078
000310 ee 77 c5 be 02 c1 5c bb be 67 35 bf e9 88 12 3f
       -0.38568062 -0.0033684378 -0.70861423 0.5724016
000320 52 d0 dd be 0c 88 ef be 44 28 38 bd f0 51 1e bc
       -0.43322998 -0.46783483 -0.044960275 -0.00966309
000330 ae 50 aa 3e c3 88 7c be d6 49 4f be fe 12 2b c0
       0.3326468 -0.24661545 -0.2024301 -2.6730342
000340 04 f1 80 3f e6 c7 26 3e 31 9a de 3e bb 4c 1f bf
       1.0073552 0.16287193 0.43477014 -0.62226456
000350 2f d8 5a 3c f9 a0 2d 3e 59 ef e0 3c 2d d0 ea 3e
       0.013357206 0.16955937 0.02745788 0.4586195
000360 2e ab a0 bf 1a 26 01 3f 50 9a 82 be d6 75 bf 3d
       -1.255224 0.50448763 -0.25508356 0.09348647
000370 bd 5d 3c be b5 3a df bd 9a 31 00 bd 9d 78 05 bf
       -0.18395133 -0.10899869 -0.031297304 -0.52137166
000380 76 d1 de 3d 38 e3 80 be c5 a9 c8 bd 4d 06 47 3e
       0.10879795 -0.25173354 -0.09798006 0.19435997
000390 c4 1b 0c 3d 85 66 d3 be 1c 25 71 3d 85 b0 a7 be
       0.034206167 -0.41289154 0.05887328 -0.3275186
0003a0 a0 1f 9b be d5 30 08 3d 12 02 cc 3f 53 56 8a bd
       -0.30297565 0.033249695 1.5938132 -0.06754746
0003b0 98 3e 3b be 5b 45 7b bc 33 02 1d be 37 e1 0c 3f
       -0.18285596 -0.01533636 -0.1533287 0.5503115
0003c0 5d 0b 52 be fe 19 15 3e 31 94 98 be b6 a5 94 3d
       -0.20512147 0.14560696 -0.2980056 0.07258169
0003d0 92 d0 e2 be 06 2b ec 3e be 8a ad be 9d aa 90 be
       -0.44299752 0.46126574 -0.33894914 -0.28255168
0003e0 9e fe f3 3e 6e a1 9e 3e 1d 8a 10 3c 43 6b 3e 3e
       0.47655195 0.30982536 0.008821991 0.18595605
0003f0 3e 0a 54 bf b5 23 8a 3b b0 96 82 3e a3 bb 78 bf
       -0.8282813 0.0042156824 0.2550559 -0.9716131

encoder.fc0.bias f4 [32]
000000 26 22 f8 bf 0c 28 d0 bf 3a 14 01 be 3b 82 a4 bf
       -1.9385421 -1.6262221 -0.12605372 -1.2852243
000010 6b 46 a0 bf 16 2f 5f bf ee ad ae bf 4a 21 59 bf
       -1.252149 -0.8718122 -1.3646829 -0.8481642
000020 a3 b6 2e bf a2 1c 77 bf 70 3f c3 bc fb 05 23 be
       -0.6824743 -0.96528065 -0.02383396 -0.1592025
000030 27 eb 82 bf 88 4c 58 bf 2e eb 45 bf a1 33 95 be
       -1.0228013 -0.8449178 -0.7731198 -0.29140952
000040 e5 1f a9 bd 2b fd 89 bf 57 6f 4d bf e8 53 6a c0
       -0.082580365 -1.0780386 -0.80248016 -3.6613712
000050 2d 56 5a bf 2a a1 24 bf 9a 3b b0 be 96 d3 93 bf
       -0.85287744 -0.64308417 -0.34420472 -1.1548946
000060 0a bd a0 bf f6 f5 5b bf a4 f3 89 bf 2e bc 46 bf
       -1.255769 -0.8592218 -1.0777478 -0.7763089
000070 31 61 c7 bf e6 e7 19 3e e4 2f 85 bf 71 e4 70 3e
       -1.5576535 0.15029868 -1.040524 0.23524643

encoder.fc1.weight f4 [32, 32]
000000 51 27 05 be 7d b9 56 bd a8 b2 dc bd 15 25 6c be
       -0.1300328 -0.05242299 -0.107762635 -0.2306102
000010 a5 3f f9 3d 96 c6 53 bc 95 f6 75 be e6 91 c4 be
       0.12170342 -0.012925765 -0.24019845 -0.38392562
000020 ac 3d 93 3d 75 c6 e1 bc e8 d0 64 bc 85 07 97 3c
       0.07189497 -0.027560452 -0.013965823 0.018436203
000030 b5 9d 87 be be 66 0c 3e ed 3f 59 be 7c cb 0f be
       -0.26487508 0.13711068 -0.21215792 -0.14042467
000040 58 0f 53 bc a2 04 ed bd fe e3 35 bd 27 3b ac 3f
       -0.012882076 -0.11573149 -0.044406883 1.3455552
000050 48 16 21 3d 16 77 53 be 50 d0 24 bd 51 2a 16 3e
       0.03932789 -0.20650896 -0.040237725 0.1466458
000060 c0 11 a9 3e 22 07 61 bf 22 1e 80 3d 07 91 14 c0
       0.33021355 -0.8790151 0.062557474 -2.3213518
000070 18 fa 86 bd 8c c2 90 bc dc 84 a4 be 39 1a f9 36
       -0.0659067 -0.017670892 -0.32132614 7.423831e-06
000080 dc f7 1f be ec 90 03 3e 0a b8 72 bd 5a 91 26 3e
       -0.15621895 0.12848252 -0.059257545 0.16266385
000090 85 2b 88 3d 28 36 68 3d 3e 7f 06 c0 07 66 9c 3e
       0.06648926 0.056692272 -2.1015162 0.3054659
0000a0 ed bf 67 3d a6 c1 24 3e d1 b9 ec ba cb cb 3d 3c
       0.05657952 0.16089496 -0.0018060749 0.011584233
0000b0 2b 59 26 3d b2 6f 9a be 5f 7b 85 3d 75 7c d8 be
       0.04061238 -0.30163342 0.06517672 -0.42282453
0000c0 75 68 89 39 c7 3e 43 bd dc 5b c1 be ae 00 b2 3f
       0.00026208503 -0.04766729 -0.37765396 1.3906457
0000d0 2f aa b5 3d 7a b1 1a 3d 45 39 cd bc e2 f2 4a be
       0.088703506 0.03776691 -0.025051722 -0.19819215
0000e0 80 45 47 bd fd 6c cd 3c 5e c5 2e 3e 00 60 43 3d
       -0.048650265 0.025076384 0.17067477 0.047698975
0000f0 97 53 74 be 82 f6 b1 bb aa b5 2a be b8 ad 6c bc
       -0.23860012 -0.0054309973 -0.16670862 -0.014445715
000100 fc 06 09 be 0a 3f c4 3c 30 ea b0 bd 52 3f 27 bf
       -0.1338157 0.02395584 -0.08638418 -0.65330994
000110 3e e1 f5 be 7a f7 33 be 6a d5 1d be ad 44 a6 bd
       -0.4802341 -0.17574874 -0.15413442 -0.081185676
000120 ca 4b 0b bf c5 86 9f 3d c2 53 11 bb ae 4e 19 3b
       -0.5441252 0.07789377 -0.0022175168 0.0023392844
000130 a6 b9 4c 3e 9c d7 90 3e ad 1a b1 ba bc a1 d4 be
       0.19992694 0.28289497 -0.0013511978 -0.41529644
000140 03 c9 12 bc 2d 4d 86 be d8 e7 c9 bd f2 c0 f1 3e
       -0.008959058 -0.26230755 -0.09858674 0.47217518
000150 b9 b9 76 3d dc 13 04 be 87 73 a5 bc 08 16 2e 3e
       0.060235713 -0.12898201 -0.02019669 0.17000592
000160 c4 fe 3a be 63 00 20 3e 3f 95 bf 3d c0 17 b1 be
       -0.18261248 0.15625148 0.09354638 -0.34588432
000170 dd 73 d1 3d 56 14 2e bc 1a 1b 73 3e dc b8 c7 bd
       0.10227177 -0.010624966 0.23740807 -0.09752056
000180 54 67 c7 be 11 b2 ac 3f 9f 26 ba be 13 59 06 40
       -0.3894602 1.3491842 -0.3635759 2.0991867
000190 c2 6e 54 3f be 34 3f bf c8 ed 41 3f b5 77 74 3e
       0.82981503 -0.74689853 0.7575345 0.2387379
0001a0 47 24 27 bd d6 2d 86 3f de db 44 bc 3e 54 5e bb
       -0.04080608 1.0482738 -0.012015311 -0.0033924724
0001b0 fb bc 21 3e 2e 4f 88 3f d1 0a c7 3d ed 6e c1 3d
       0.15794747 1.0649164 0.0971886 0.094449855
0001c0 dd 8a 9e 3c 89 79 35 3f 23 ed 17 c0 b6 e9 13 40
       0.019353325 0.7088857 -2.3738487 2.3111396
0001d0 1d 7e 45 3e 86 1c f9 be 9f 30 0f 3f 1d d8 1c 3f
       0.1928639 -0.48654574 0.55933565 0.6126726
0001e0 93 ae 5f 3f 6c ac 07 bd 66 58 9c 3f 67 63 26 3e
       0.87375754 -0.03312342 1.2214477 0.16248856
0001f0 fc a5 01 3f f6 e1 e8 3c 60 ab 9a 3e 01 2e 00 bf
       0.506439 0.02842806 0.30208874 -0.50070196
000200 5e d6 97 be 13 24 8a 3e 4d e0 ec bd 2a c0 b0 3e
       -0.29655737 0.26980647 -0.115662195 0.3452161
000210 05 64 96 be 66 9b 68 3e 77 04 a9 3e aa 01 3f bf
       -0.29373184 0.2271553 0.3301122 -0.74611914
000220 07 aa 3d 3e 73 59 85 3e 73 b8 8c 3b a2 24 83 3c
       0.18521892 0.26044807 0.004294449 0.016008679
000230 9f 29 80 be 0d 56 ec 3d 62 f3 8e bf 03 ed b0 3d
       -0.25031754 0.115398504 -1.1168025 0.086389564
000240 d8 bc b5 bb 26 9b a9 be 0f e0 06 3f ea 21 59 3f
       -0.0055461936 -0.3312618 0.52685636 0.84817374
000250 b7 c5 93 3c 1c e2 45 3e 79 1b a3 be 12 c9 6c 3d
       0.018038614 0.19324535 -0.31856897 0.057808943
000260 ec 5a bd 3e 94 c7 14 be 43 42 94 3d 3b 64 87 3e
       0.3698343 -0.14529258 0.07239201 0.26443657
000270 61 a7 9e bd 60 25 2d bc ec c6 fd 3e ec a4 b3 3e
       -0.07746769 -0.010567993 0.49565828 0.35086763
000280 8a 86 f1 3b 1a fe 89 3c 24 c9 07 bd ef fb 7c 3b
       0.0073707746 0.016844798 -0.033150807 0.0038602313
000290 b2 15 e9 bc 84 84 2c bc d5 88 3d 3c ac 6d 72 3b
       -0.028452728 -0.010529641 0.011568268 0.003699164
0002a0 e5 00 1c 3d 3d ee bb 3a 82 78 0a 3c 59 3a 48 3d
       0.03808679 0.0014337968 0.008451583 0.04888377
0002b0 c4 33 35 bc 0c aa 57 bd 3b c8 14 bc 1e 0b 17 bc
       -0.011059705 -0.052652404 -0.009080942 -0.009218959
0002c0 f1 34 22 3d 75 74 06 3d d7 a5 79 3c 8a ac 61 be
       0.03960127 0.032825906 0.015237293 -0.22038475
0002d0 70 0e cc bc e6 c6 85 bc e4 11 54 3c 84 49 02 3b
       -0.024909228 -0.016330194 0.012943719 0.0019880245
0002e0 25 a7 9c 3b 89 d1 1e 3c 07 f5 aa 3c 32 c8 19 bc
       0.0047806674 0.009693512 0.020868791 -0.009386109
0002f0 fc 16 0c bc a4 ca 08 3c d8 f7 66 3c a1 d3 e0 3c
       -0.008550402 0.008349095 0.0140971765 0.027444663
000300 1c ab 9c 3c d8 3a c3 3c 2f 7c 25 bd 28 90 b8 3c
       0.01912456 0.02383177 -0.040401634 0.022529677
000310 26 62 53 bd 13 85 23 3c 63 d4 c7 3c 71 47 b0 ba
       -0.051607274 0.009980458 0.024393266 -0.0013449026
000320 b5 fe 50 3d e1 eb 01 3d 5a 8d bf 3c b8 b7 d6 bb
       0.051024158 0.031719092 0.023382831 -0.0065526627
000330 16 01 76 3c ab d4 0f be a2 6b 13 bc f3 4c e4 bb
       0.015014907 -0.1404597 -0.00899783 -0.006967181
000340 c5 1a 32 bd c3 a5 fc 3c 18 38 95 3b 8a 82 13 bd
       -0.04348256 0.03084076 0.004553806 -0.036013164
000350 db e9 18 bd f4 e0 0d bd 5c a5 e5 3c ff 57 4e 3c
       -0.037332397 -0.03463836 0.028032951 0.012594222
000360 f7 48 fc 3b 60 2f ea bb c1 43 73 3d 9c f1 8b bc
       0.007699128 -0.007146761 0.059390787 -0.017082982
000370 b8 05 2f 3c c7 18 93 bc bf c4 bb bb 83 ba 37 3d
       0.010682516 -0.01795615 -0.005730241 0.044855606
000380 75 49 bf 39 02 b7 e0 3b 0f 67 81 3b 44 b1 aa 3c
       0.0003648509 0.0068577537 0.003949053 0.02083648
000390 75 c9 91 bc 5e c9 b8 bc aa fb bb 3b 1c 61 7a bb
       -0.017796258 -0.022556957 0.005736788 -0.0038204854
0003a0 e3 6e f2 3c ce 4c bd 3b ae 55 90 bc ef af a0 bd
       0.02959389 0.005776978 -0.01761898 -0.07846057
0003b0 7d ee e7 3c 48 d4 6f be 3e 78 29 bc 6d ba 1f bc
       0.028311962 -0.23420823 -0.010343609 -0.009749037
0003c0 c6 33 96 3d af 05 ce 3c 92 72 84 3c 48 d7 6c be
       0.07334094 0.025149195 0.016167913 -0.23128998
0003d0 af 7b cf bc 2a 1c 1b bd 7a 85 2e 3c 36 a8 40 3b
       -0.025327532 -0.037868656 0.0106519405 0.0029397137
0003e0 e7 6b 65 3c b6 c4 2c bd 91 50 12 3d 8e fb d4 bb
       0.014002777 -0.042179786 0.035721365 -0.006499714
0003f0 e7 11 c2 3b 45 a6 ad 3b e8 c6 ab 3c e8 fa 85 3c
       0.0059225443 0.005299362 0.02096887 0.016354993

encoder.fc1.bias f4 [32]
000000 1b a1 13 c0 34 75 cc bf 44 d5 51 bf 22 61 6d c0
       -2.306708 -1.5973268 -0.8196604 -3.7090535
000010 e8 e5 83 bf 2e ec 6b be 2f 5a aa bd 6c fd d1 be
       -1.0304537 -0.23039314 -0.083179824 -0.41013658
000020 37 1b 92 be 05 03 a8 bf da 6d 78 bf d3 8a 2e bf
       -0.28536388 -1.3125921 -0.9704262 -0.6818058
000030 fc 04 dd bf 16 5b 6c bf ff a7 15 c0 ff a5 02 c0
       -1.7267146 -0.92326486 -2.3383787 -2.0413816
000040 5f 6b 86 be 1c 5c eb bf 8a c2 e5 be 42 ef 90 bf
       -0.26253793 -1.8387485 -0.44874984 -1.1323016
000050 07 c5 95 bc 0b fb d4 bf c4 9a 0b c0 6f e7 c1 bf
       -0.018282427 -1.6639112 -2.1813211 -1.5148753
000060 6c 54 72 bf 38 70 8c bf f8 ed de bf 3a 30 60 c0
       -0.9466007 -1.0971746 -1.7416372 -3.5029435
000070 e5 2a 5d c0 d3 ac cf bf 4b d9 b5 be 64 82 07 bf
       -3.455743 -1.6224617 -0.35517344 -0.52933335

encoder.fc2.weight f4 [32, 32]
000000 b3 ce b3 3e c1 8c e8 bf 2a 19 52 3d 83 cb c3 bb
       0.35118636 -1.8167955 0.05129353 -0.005975188
000010 eb 84 27 be d7 0a fc 3a 13 48 2d bc ed 53 a8 3b
       -0.16359298 0.0019229305 -0.010576266 0.005136958
000020 36 e3 10 3b f6 2e 54 be 37 bf 4a be 55 f8 51 bc
       0.0022108085 -0.20721039 -0.19799505 -0.012815555
000030 d2 ad 3e be 1e c0 69 3b 5d 93 9a 3e 99 d6 80 bc
       -0.18620995 0.003566749 0.30190554 -0.015727328
000040 3b 2e cb 3b de 2d 5a 3e bd bb 12 3e d4 ff b4 bd
       0.0062005795 0.2130656 0.14329429 -0.08837858
000050 99 d9 85 bb 66 e2 fd bb 1c 79 a4 3d d0 ea 43 3c
       -0.0040847776 -0.007747936 0.08030912 0.011957839
000060 a2 19 b2 3d 15 24 e2 bd 32 3e 55 3e 45 8d fc 3d
       0.08696295 -0.11042038 0.20824507 0.123316325
000070 a2 e1 a5 3d 3b e3 3a 3d de 92 86 3b 42 8b 0b bd
       0.08099677 0.04562686 0.0041068634 -0.034068353
000080 ad 90 67 be 18 4e 51 3e 31 40 0d be 78 0c d4 bd
       -0.22613783 0.20439947 -0.13794018 -0.10353941
000090 e2 d0 c6 3c 58 b9 74 bb d3 6e 50 bc 7c 69 86 bb
       0.024269525 -0.0037341919 -0.012721735 -0.00410193
0000a0 d0 43 e3 3b 57 96 5a 3e 83 7d 50 3e 06 a3 fb 3e
       0.006935574 0.21346413 0.20360379 0.49147815
0000b0 32 69 de 3d 0c b2 4d 3e 75 6e 93 3d 9c 73 b5 be
       0.10859908 0.2008745 0.071988024 -0.35439765
0000c0 e0 9f 5e ba c4 30 35 3e cf 7a dc bd 49 ad c3 be
       -0.0008492451 0.17694384 -0.107656114 -0.38218144
0000d0 80 16 b3 3b 1a 33 44 be d9 65 f9 bd 29 89 cb bc
       0.0054653287 -0.19160119 -0.12177629 -0.024845676
0000e0 09 e0 65 bd 21 17 c8 3d 60 48 d8 3e 23 96 bb bd
       -0.05612186 0.097700365 0.42242718 -0.09159496
0000f0 51 a5 e2 3d 17 b9 e9 bc f4 d7 b9 3b 80 29 53 bd
       0.11066688 -0.02853064 0.0056714956 -0.05155325
000100 9b cf 9c 3e e9 75 11 3e ea 51 2e 3d 79 16 8d 3e
       0.3062714 0.14205135 0.042558588 0.27556208
000110 c4 fa 22 be 52 f8 52 3a 54 bf 8a bb 70 67 1a 3b
       -0.15915972 0.0008047867 -0.004234234 0.0023560189
000120 a5 e2 4a 3a e2 26 cd ba 00 bf 9e 3d 6c fa 89 be
       0.0007739461 -0.0015651847 0.07751274 -0.2694887
000130 1b 79 1b bf 0b fa 9a bd 64 a6 a2 3e 18 45 a2 bb
       -0.6073167 -0.07567223 0.3176757 -0.0049520843
000140 9e 51 04 3b 51 55 ca be 54 f5 33 3e 97 cf 69 be
       0.002019025 -0.39518216 0.17574054 -0.22833095
000150 16 d4 af 3a 2f cd ae 3c b5 99 ca 3d 1d 7c a4 bc
       0.0013414647 0.021338074 0.098925985 -0.020078713
000160 0a 79 08 be c2 5c 9c 3d c4 48 30 3e 7b 1d 4c 3c
       -0.13327423 0.0763488 0.17215258 0.012458201
000170 4b c3 cb 3d ff 67 df be 0c 92 c6 3b c2 ac ea 3d
       0.099493586 -0.4363403 0.0060598906 0.11458732
000180 52 b6 81 bd 0c 9b 2c bc 3e 34 db 3d 19 f1 fd 3d
       -0.06333603 -0.010535013 0.10703324 0.12399501
000190 9f b9 8c bd 70 97 2b 3b 78 6e 87 bb e8 c4 bb 3a
       -0.06871342 0.0026182793 -0.004133042 0.001432565
0001a0 91 29 87 bb c5 10 c8 3d 8f 80 9d 3d fd 38 6b 3c
       -0.004124828 0.097688235 0.07690536 0.014356849
0001b0 25 a0 cc bd cc d7 ee bc 5f 52 bb 3d 1d 03 1a 3e
       -0.09991483 -0.029155634 0.091465704 0.1504025
0001c0 44 5c 6a bb 72 48 83 3c d2 02 2e be 9b fc 28 3f
       -0.003576056 0.016025756 -0.16993263 0.66010445
0001d0 d7 0e c8 bb e1 c4 d5 bc d2 1a cc bd 55 58 8a 3d
       -0.0061052847 -0.026094856 -0.09966053 0.06755129
0001e0 22 d2 48 3e 62 6c a9 3d fe 63 b9 3d ce f1 26 be
       0.1961141 0.082726255 0.09052275 -0.16303179
0001f0 c5 90 5e be 87 58 65 3d 3f 26 c3 bb 8b 08 c3 be
       -0.21734913 0.05599263 -0.005955487 -0.38092455
000200 08 40 4d be 9e d4 0d bf ae 20 9b be 1d c7 90 3f
       -0.20043957 -0.55402553 -0.3029837 1.1310765
000210 8e 4a 5d 3e 5f e9 b1 bc 04 40 6d bc 15 19 7b bb
       0.21610472 -0.021717725 -0.014480595 -0.003831451
000220 ea 7d a2 3c 90 ad 7f 3e 20 6c 32 3e d3 ab b8 bd
       0.019835431 0.24968553 0.17424059 -0.09017148
000230 34 ca c1 be a3 90 27 3e 31 02 52 bf 75 4e 51 3d
       -0.3784958 0.16363768 -0.82034594 0.051100213
000240 d8 ad 87 3c 59 4a 07 be 23 e0 0e be 98 28 58 be
       0.016562387 -0.13211955 -0.13952689 -0.21109235
000250 7a 6f 74 3c 15 ba 25 bf c7 76 a0 bb 65 7e 68 3e
       0.014919156 -0.64737064 -0.004896972 0.22704466
000260 27 21 62 3e 98 62 89 be 1c e4 4e 3e 5f 98 91 3f
       0.22082959 -0.26833034 0.20204204 1.1374625
000270 e0 3f 66 3f 1b ac 36 bf 49 9d ca 3c a5 99 86 bf
       0.89941216 -0.7135636 0.024733203 -1.0515639
000280 82 ee e3 3b c2 d0 df bd d8 36 f5 bd 46 5b e9 3e
       0.0069559226 -0.10928489 -0.11973351 0.4557745
000290 a9 8b 08 bd c8 79 e2 3b 7e 13 53 3c 11 1e 59 bb
       -0.033336315 0.00691149 0.012883065 -0.0033129493
0002a0 65 1a b0 3a 81 e4 80 bc 78 5d e0 3b ed 10 0e c0
       0.00134356 -0.01573396 0.00684708 -2.219783
0002b0 39 e2 74 3e d3 87 a6 3e 68 74 78 bd b1 ee 3e be
       0.23914422 0.325255 -0.06065789 -0.18645741
0002c0 89 3f 2b 3b 53 10 81 3b 21 c5 e7 bd c3 15 9d bc
       0.00261304 0.0039387136 -0.11316896 -0.019175416
0002d0 a7 e1 0e bc 97 7d 61 3e 72 f0 e7 3a 0b 9e 05 3d
       -0.008720792 0.22020565 0.001769556 0.032621425
0002e0 73 43 1b bd 9d 03 05 3d dc 79 aa bd f1 27 14 3f
       -0.03790612 0.03247415 -0.08324024 0.57873446
0002f0 68 f0 1a 3f ec 17 2f be 25 7c 90 bb a0 c3 a1 be
       0.6052308 -0.17098969 -0.0044093304 -0.31594563
000300 39 ca b3 3e 0d 52 9e 3c eb 41 27 3e f7 2e 59 3f
       0.3511522 0.019326234 0.1633374 0.8483729
000310 0b 0f a7 be 50 7c 97 bb 89 51 74 bc ac 69 26 ba
       -0.32628664 -0.0046229735 -0.014912018 -0.0006348144
000320 98 11 6c bb bf dd 9b bd 11 86 ec bc cd 99 dd bc
       -0.003602123 -0.07610654 -0.028872522 -0.027050877
000330 ba d0 10 ba cb b7 a2 3d c4 48 40 3d e2 38 50 3e
       -0.0005524267 0.07945212 0.046944395 0.20334199
000340 55 2e ab bb 64 2f 28 3d f9 1a 1b c0 83 a2 bb 3a
       -0.005224029 0.04106082 -2.4235213 0.00143154
000350 46 37 a4 3b 7e 1a 17 be 63 69 ae 3b 90 fe a6 be
       0.005011472 -0.147562 0.0053226217 -0.3261609
000360 f5 eb 9c 3b 82 2a a8 3d 85 bb 2d be 6b dd 3c 3f
       0.0047888705 0.08211233 -0.16966064 0.73775357
000370 85 2d 05 3f dc 39 79 3b cb eb 04 3a 22 90 1d be
       0.5202258 0.0038028872 0.0005070536 -0.15387014
000380 14 31 8f be 65 8d e6 bf a4 ae 76 3d 08 10 c1 3f
       -0.2796713 -1.80119 0.060225144 1.5083017
000390 d8 56 c7 be 71 94 96 bc cb e3 70 bc 99 13 2b bb
       -0.38933444 -0.01838133 -0.014702748 -0.002610421
0003a0 52 11 8b ba bc 08 c1 bd e9 da 08 bf ca 88 2f 3e
       -0.001061002 -0.09425494 -0.5345903 0.17142025
0003b0 38 d7 a4 be 92 a1 01 be c1 6a 40 3e ad a0 d9 3d
       -0.3219545 -0.1265929 0.18790723 0.106263496
0003c0 f5 09 17 3c 95 dd ab bf 9e c8 ac b9 f6 5c 7a bf
       0.009218683 -1.3426996 -0.00032955868 -0.977981
0003d0 00 39 b9 3b 28 ff 05 3a f3 f4 36 be c0 7b b4 bc
       0.005652547 0.00051115686 -0.17866878 -0.022031665
0003e0 68 5b 7b be 2f f9 bc be e7 3f 15 be 84 63 ae 3f
       -0.24546587 -0.36908862 -0.14575158 1.362412
0003f0 69 67 a8 3f f1 be b1 3e b3 af 20 3c 8c c8 fa bd
       1.3156558 0.3471599 0.009807515 -0.122452825

encoder.fc2.bias f4 [32]
000000 86 41 7b 3c 53 88 31 3e ec 43 1b 3e f7 41 99 3e
       0.015335446 0.1733716 0.15162629 0.2993314
000010 86 46 71 bf e9 fb b2 be 7f 3e 57 bf 18 a1 bb bf
       -0.94248235 -0.34957817 -0.84079736 -1.4658537
000020 66 61 1a 3d 07 f1 14 bd 0f e3 6b bd e1 6d 87 bd
       0.037690543 -0.036362674 -0.057589587 -0.066127546
000030 0e b3 6b be 24 f0 f7 3d e0 fe b6 bc 69 ad 00 bf
       -0.23017523 0.1210635 -0.02233833 -0.502646
000040 bd cd 1a be 55 e3 91 bf c9 7a 88 be 7e 66 05 bd
       -0.15117545 -1.1397501 -0.26656178 -0.032568447
000050 1f 5b cf 3c 7b a8 0d bf aa 5b 30 bf c4 25 84 bd
       0.025312005 -0.55335206 -0.6888987 -0.06452516
000060 c9 6f 20 3b 37 f3 83 bf ea 59 40 3c de 65 c5 be
       0.0024480692 -1.0308598 0.011740187 -0.3855428
000070 5e 7f 8a bd 9d c4 e7 3d 02 21 10 bf 0f 1a f7 3a
       -0.067625746 0.11316798 -0.56300366 0.001885237

decoder.weight f4 [829, 32]
000000 f1 ae 2b c0 c7 26 2a bf 44 ca 0a 3f 83 9d ea bf
       -2.6825526 -0.6646542 0.5421488 -1.8329319
000010 81 4d af 3f b6 71 e0 bd 7a 17 61 3f 05 ac a8 3f
       1.3695527 -0.10959189 0.8792645 1.3177496
000020 7f 4d e7 bd 41 4a 63 be db dd 29 be 6f c7 5d 3e
       -0.11294078 -0.22196294 -0.16588537 0.21658109
000030 0d 94 e6 be 00 01 b1 3c f4 d2 b6 bc cf 61 08 bf
       -0.4503483 0.021606922 -0.022317387 -0.53274244
000040 9d dc 0a bf 44 73 b2 3f 8b 1c 2d bf 27 aa 47 bf
       -0.5424288 1.3941426 -0.6762168 -0.77994007
000050 7c 1d 7a be 9d 67 18 bf 89 cb 89 3f 74 f7 0a bb
       -0.2442531 -0.595331 1.0765239 -0.0021204622
000060 d9 15 55 be e9 7a b1 3f 91 c6 85 bf 62 21 1e be
       -0.20809115 1.3865634 -1.0451223 -0.15442422
000070 63 c8 d0 3d dc c8 59 3e 76 19 65 3f d2 29 d8 be
       0.10194471 0.21268028 0.89491975 -0.42219406
000080 93 f7 ae be f1 64 83 bf 1e e4 d9 bf 0a d8 c6 bf
       -0.3417326 -1.026518 -1.7022741 -1.553468
000090 3d f0 a8 3f a0 0e 24 bf f2 3b a7 3f e5 3f f7 3f
       1.3198315 -0.64084816 1.3065169 1.9316374
0000a0 53 ff 87 3e 38 f3 f5 bd 54 f5 da 3e 1b bf 42 be
       0.26561984 -0.12009281 0.42765296 -0.19018213
0000b0 5a 6e ee bf 8b 36 97 3c 01 97 66 be de 9e 70 3d
       -1.8627427 0.018458625 -0.22518541 0.058745258
0000c0 a6 d4 e8 3e 3e 3f aa 3f 2a 36 a0 3e f7 d2 37 bf
       0.45474738 1.330055 0.31291324 -0.7180628
0000d0 05 0f f2 3e 66 65 88 3d 9d 69 0b 40 75 0c 29 3e
       0.47277084 0.06659965 2.1783211 0.16508658
0000e0 dc 20 13 bd b8 bf 91 3f 89 9e 8e 3c d7 d4 d3 be
       -0.03592001 1.1386633 0.01740958 -0.4137332
0000f0 3f 1f 75 3e 92 38 36 bf 54 c5 a6 bd f2 05 36 bf
       0.239377 -0.7118007 -0.08143106 -0.7110282
000100 4c 8b 4c c0 09 1a 59 bf 5e 74 22 bf 16 25 95 bf
       -3.196002 -0.8480535 -0.6345881 -1.1651943
000110 99 74 cb 3f aa bc 0b be 7b 96 bb 3f be bd b2 3f
       1.5894958 -0.13646188 1.4655298 1.3964155
000120 1b 0d 68 be a4 f4 26 3e 98 15 f1 3d b5 97 04 bf
       -0.2266125 0.1630426 0.11771697 -0.51793987
000130 07 28 d3 bf 74 d3 aa bd 1c ae 58 bd be ce ad 3e
       -1.649659 -0.08341113 -0.05290042 0.33946794
000140 0c 95 05 c0 86 f7 ad 3f a3 f5 2a bf 85 db 2e bf
       -2.087222 1.3591163 -0.6678106 -0.6830371
000150 be fa 8b 3d 7f f6 54 3e 39 fc 67 3f 4a df 65 3e
       0.06834935 0.20797156 0.90619236 0.2244846
000160 47 33 a5 3e f2 04 ef 3f e5 4b 22 bf 94 01 39 bf
       0.32265684 1.8673384 -0.63397056 -0.72268033
000170 6c 6d 0f 3b da 37 91 bf fb fe 04 3f 07 9f ba be
       0.002188529 -1.134517 0.5195157 -0.36449453
000180 ef bd 3b c0 90 83 cf bf 71 51 b5 be be fa b8 bf
       -2.9334676 -1.6212025 -0.35413697 -1.445152
000190 98 d2 be 3f 89 bf a4 3e 7a ec 45 3f 2e 2a be 3f
       1.4908018 0.3217738 0.7731396 1.4856622
0001a0 ad 49 0a be 9f 26 d5 be 63 40 95 be a9 d5 a4 bd
       -0.13504668 -0.41631028 -0.29150686 -0.08048565
0001b0 a0 57 d1 bf 68 4e 13 bf 29 94 73 be cf d3 fd be
       -1.6354866 -0.57541513 -0.23786987 -0.4957566
0001c0 da 4d 78 bf ab 56 b0 3f fd a1 df 3d 1d 87 c1 be
       -0.9699379 1.3776449 0.10919569 -0.37798396
0001d0 b2 95 af bd 0f 00 c5 3e 01 05 c6 3f c9 15 4a 3f
       -0.08573474 0.38476607 1.5470277 0.7893949
0001e0 23 08 36 3e 2e 2a 0a 40 a0 d9 5a bf 5d 9c d4 be
       0.17776541 2.1588244 -0.8548832 -0.41525546
0001f0 c1 9a 98 bd 3f 1b c0 bf 49 ee f8 bd 49 3a 30 3e
       -0.07451392 -1.5008315 -0.12154824 0.17209734
000200 c4 38 08 c0 4f 70 11 c0 f5 fc a9 bf e3 39 16 3f
       -2.1284647 -2.2724798 -1.3280321 0.5868208
000210 d5 46 af 3f 19 e2 ce bf a5 fa 5d 3f 68 c0 cd 3f
       1.3693491 -1.616275 0.8671058 1.6074343
000220 92 35 1b be 03 b8 de 3e 70 f9 d0 3d 66 bb 8e bd
       -0.15157154 0.43499765 0.102038264 -0.06969337
000230 33 80 ab bf 34 76 d7 3e 51 44 8a 3d 61 dd 58 bf
       -1.3398498 0.4208237 0.067513116 -0.847128
000240 8f c4 07 c0 8d 6c 1d 40 8d a6 6d c0 a2 4d 0f bf
       -2.121372 2.4597504 -3.7132905 -0.55977833
000250 cd 9c 6c 3e 37 c9 a9 bf 77 93 ae 3f 96 dd 53 bf
       0.2310669 -1.3264531 1.3638753 -0.8275999
000260 0a 41 14 3d 3b aa ea 3f 64 fa 99 bf a5 48 e3 bf
       0.03619484 1.83332 -1.2029538 -1.7756544
000270 9e 20 a2 bd bf cc ad bf ff 21 67 3f 49 36 2c c0
       -0.079163775 -1.3578109 0.9028625 -2.6908133
000280 43 d6 b0 bf 68 52 b9 bf 4e e0 95 bf 71 e2 e7 bf
       -1.3815387 -1.4478273 -1.1709077 -1.811598
000290 9b 0b cf 3f d3 a8 91 3d f7 89 95 3f d5 60 9d 3f
       1.6175417 0.07112279 1.1682729 1.2295176
0002a0 00 a0 61 be 27 18 19 3e c1 3a cc bd f0 20 42 3d
       -0.22033691 0.1495062 -0.09972144 0.047394693
0002b0 8c 29 0b c0 56 a9 61 be ba f9 08 be 83 bb 40 be
       -2.1744108 -0.22037253 -0.13376513 -0.1882153
0002c0 35 db b5 be fa 5b a5 3f bd f1 09 bf 02 72 b5 be
       -0.35518804 1.2918694 -0.5388449 -0.35438544
0002d0 fa 7d 97 bd e9 ea 8a bd 0a 6b ef 3f 96 65 85 be
       -0.07397075 -0.06783087 1.8704541 -0.26054066
0002e0 6a a7 b9 bd c2 a8 ce 3e 29 24 1c 3f b2 5b fc be
       -0.09065135 0.40363127 0.60992676 -0.49288708
0002f0 3c 30 64 3e 2c f4 7d 3e 5f 49 82 3d df 5f 6a bf
       0.22284025 0.24800175 0.06361651 -0.9155254
000300 17 eb a2 3d d6 28 24 bf de 04 42 bf e6 33 9e bf
       0.07954996 -0.6412481 -0.75788677 -1.2359588
000310 1f 27 ea 3f d0 11 4e bf 25 ad 08 40 0c f0 d8 3f
       1.8293189 -0.8049593 2.135568 1.6948256
000320 c1 b4 c6 3d 36 27 05 3d fc 20 bc 3c e2 1e f3 3b
       0.09702445 0.032508098 0.022964947 0.007419453
000330 d7 15 be bf b0 c2 48 3e 78 fd 11 3d 5d 41 bf be
       -1.4850415 0.19605517 0.035642117 -0.37354556
000340 b0 44 0b c0 7c c6 c1 3f 49 ee b6 be 61 8d 23 bf
       -2.1760674 1.5138698 -0.35728672 -0.638876
000350 4a 3c 1e be 5a fe 0b 3f 52 92 bc 3f 93 dd a5 bc
       -0.15452686 0.54684985 1.4732153 -0.020247256
000360 a1 f4 09 be df 83 52 3f d6 2d 9c bf de 21 c5 3e
       -0.13472225 0.8223247 -1.2201488 0.385024
000370 c4 09 bc bd b2 3a 97 3e a9 1a 1b bd 05 50 22 c0
       -0.0918155 0.29536968 -0.037867222 -2.536134
000380 39 a5 b4 bf c0 68 be be 1e 14 b3 be 8c 13 03 c0
       -1.4112922 -0.37189293 -0.34976286 -2.048068
000390 44 47 ac 3f be d6 2c bf d2 38 61 3f e5 5a bb 3f
       1.3459249 -0.6751517 0.87977326 1.4637114
0003a0 a5 9a 3b 3d d7 bd 97 3e 3b 73 61 3e fa a1 4a 3e
       0.045801777 0.29637024 0.22016613 0.19788352
0003b0 98 ca f6 bf c9 91 24 3e 20 f2 a3 be 49 c6 82 bf
       -1.9280577 0.16071238 -0.32020664 -1.0216762
0003c0 bd 9a b0 bf 0b 70 0c 40 b7 fc 48 bf 53 00 4e bf
       -1.3797222 2.1943386 -0.7851061 -0.80469245
0003d0 d8 11 67 bc 4b 46 d2 bd a1 5f 99 3f b3 82 7e bc
       -0.014103375 -0.102673136 1.1982309 -0.015534091
0003e0 d7 11 d0 be d3 f9 ca 3f 89 ce 4c be 21 8e 86 3d
       -0.4063861 1.585749 -0.20000662 0.06570078
0003f0 96 68 7f 3e 24 b9 75 be da be b3 3d 67 54 0d 3d
       0.2494224 -0.23996407 0.087766364 0.03450432

decoder.bias f4 [829]
000000 f0 ad c3 bf 9b ae b9 bf 9e 67 ca bf 2e cd ed bf
       -1.5287457 -1.450641 -1.5812871 -1.8578241
000010 9c 3d cf bf dd b5 be bf 44 e0 0f c0 bd 88 a7 bf
       -1.6190677 -1.489925 -2.248063 -1.3088604
000020 0a b4 94 bf 8d 58 b1 bf 8b 88 cb bf 75 8e a2 bf
       -1.1617444 -1.3855149 -1.5901045 -1.2699724
000030 b3 2d ad bf 55 23 7f bf 81 25 c7 bf cb 52 e3 bf
       -1.3529571 -0.9966329 -1.555832 -1.7759641
000040 f6 32 a2 bf ef c9 f5 bf 18 a0 5f bf ed 95 e5 bf
       -1.2671802 -1.920225 -0.8735366 -1.7936379
000050 88 9d d4 bf 90 18 07 c0 4b 74 e7 bf 22 ed 04 c0
       -1.6610575 -2.1108742 -1.8082365 -2.0769734
000060 48 b6 a6 bf b8 f9 ba bf b2 0c ce bf fd c7 d1 bf
       -1.3024378 -1.4607458 -1.6097624 -1.6389157
000070 19 6d cb bf 86 df 00 c0 ed 14 fd bf 31 d4 92 bf
       -1.5892669 -2.0136428 -1.9772011 -1.1471006
000080 e4 ad bd bf a3 6d 12 c0 bd 02 0e c0 79 a7 0d c0
       -1.4818692 -2.2879417 -2.2189171 -2.2133467
000090 d6 d7 a1 bf b4 c5 f6 bf d0 3d ac bf 93 83 cc bf
       -1.2643993 -1.9279084 -1.3456364 -1.5977653
0000a0 96 f3 1e c0 83 f0 db bf ba 5d 07 c0 44 0f d4 bf
       -2.4836173 -1.7182773 -2.1150956 -1.6567159
0000b0 b4 58 0a 3f 56 55 47 bf 4a ad cd bf 1c 34 76 bf
       0.540416 -0.7786459 -1.6068509 -0.9617326
0000c0 1f 95 a7 bf 35 0b 05 c0 66 94 a7 bf bc 93 e7 bf
       -1.3092383 -2.078809 -1.3092163 -1.809196
0000d0 f1 14 f9 bf ba c8 e0 bf 2d ab 6e bf 1c d3 bc bf
       -1.9459516 -1.7561257 -0.93229944 -1.4751925
0000e0 f4 6a 57 bf d0 2c de bf cf d1 ca bf a3 b1 0c c0
       -0.8414757 -1.7357426 -1.5845279 -2.198342
0000f0 86 5e c9 bf 66 1c f9 bf a5 0c 2d bf 4d 4e 03 c0
       -1.5731971 -1.9461792 -0.6759742 -2.051654
000100 03 05 8c bf 85 71 be bf 9e e9 bd bf 44 cd db bf
       -1.093903 -1.4878393 -1.4836919 -1.7172017
000110 75 88 07 c0 f1 65 f1 bf 04 39 f4 bf ff 84 0a c0
       -2.1177037 -1.8859235 -1.90799 -2.1643674
000120 ff 25 d6 bf 01 3c ff bf a2 7d 15 c0 63 f3 fd bf
       -1.6730345 -1.9940187 -2.335793 -1.9839901
000130 eb c4 ef bf 4b ab e6 bf f4 71 f0 bf d7 aa 0e c0
       -1.873197 -1.8021024 -1.8784776 -2.2291772
000140 9f 6f 09 c0 19 ca e8 bf 11 69 2f c0 f6 07 e2 bf
       -2.1474378 -1.8186675 -2.7407877 -1.765868
000150 30 ad e0 bf b0 9b c7 bf d6 0c cb bf 39 04 0d c0
       -1.7552853 -1.5594387 -1.5863292 -2.2033827
000160 91 8a 36 c0 bb 49 eb bf 46 b3 cd bf 85 0e a2 bf
       -2.8522074 -1.8381876 -1.6070335 -1.2660681
000170 31 c0 d9 be bc aa a8 bf 4c a2 d9 bf 64 3f ab bf
       -0.42529443 -1.3177104 -1.7002654 -1.337872
000180 ca ac da bf 4b 30 dd bf 52 64 a9 bf 29 0b 9d bf
       -1.7083981 -1.7280363 -1.323374 -1.2269031
000190 92 b7 0b c0 65 f8 24 bf 89 dc c9 bf 7d b4 d0 bf
       -2.1830792 -0.6444152 -1.5770427 -1.6305081
0001a0 9e ca a1 bf c6 3f ae bf bc 1b 1d c0 96 87 10 c0
       -1.2639959 -1.3613212 -2.4548178 -2.2582755
0001b0 28 bf c6 bf 10 a4 a0 bf c6 9e ed bf cf 6f ce bf
       -1.5527086 -1.2550068 -1.8564079 -1.6127871
0001c0 e8 1b 8b bf 88 15 49 bf 93 94 b0 bf f5 2b e2 bf
       -1.0867891 -0.7854848 -1.3795341 -1.7669665
0001d0 9b db 08 c0 4b 58 f1 bf 08 49 ac bf be 5c b7 bf
       -2.1384037 -1.885507 -1.3459787 -1.4325178
0001e0 52 0a b5 bf 0f f9 da bf 32 26 cf bf af 10 17 c0
       -1.4143775 -1.7107257 -1.6183531 -2.3603933
0001f0 cc 00 00 c0 e8 3f 03 c0 c7 92 17 c0 13 13 01 c0
       -2.0000486 -2.0507755 -2.3683336 -2.0167892
000200 a9 8e e0 bf d7 d7 9c bf 11 3b b1 bf ec 0d e0 bf
       -1.7543536 -1.2253369 -1.3846151 -1.7504249
000210 5f d7 d6 bf 2f 69 6b bf 57 2b fb bf 46 bd e3 bf
       -1.6784476 -0.9195737 -1.9622601 -1.7792137
000220 09 31 0a bf 58 34 11 c0 05 39 ed bf 5e 84 ff bf
       -0.5398107 -2.2688198 -1.8533026 -1.996227
000230 5d 50 03 c0 0e 65 23 c0 c7 5a 03 c0 10 d2 88 bf
       -2.05178 -2.553043 -2.0524156 -1.0689106
000240 80 09 d4 bf 36 d5 da bf 2e 24 03 c0 6e 11 18 c0
       -1.6565399 -1.7096317 -2.0490832 -2.3760638
000250 75 ee 0e c0 80 5e ea bf 68 ec d9 bf f3 95 fa bf
       -2.2333043 -1.8310089 -1.702527 -1.9577011
000260 e7 0a be bf 86 3f af bf 92 26 fd bf 1b 98 ba bf
       -1.4847077 -1.3691261 -1.9777396 -1.4577669
000270 9a b1 ca bf 7c 29 cb bf bd 52 0e c0 2d 6e 9a bf
       -1.583545 -1.5872035 -2.2238 -1.2064873
000280 68 0a cc bf 3f 3d d7 bf 55 0f b5 bf 2f 91 e8 bf
       -1.5940676 -1.6815566 -1.4145304 -1.8169307
000290 5c c6 9e bf ae 81 ec bf d9 7b ea bf 1c fa df bf
       -1.2404284 -1.8477075 -1.8319045 -1.7498202
0002a0 b0 9a 18 c0 44 70 c6 bf 3b 78 c0 bf fd dc 8f bf
       -2.3844414 -1.5503011 -1.5036691 -1.1239315
0002b0 c1 30 fb bf 62 e5 d4 bf 88 8f bd bf 47 ae ea bf
       -1.9624254 -1.6632502 -1.4809427 -1.8334435
0002c0 15 9a 15 c0 55 34 e6 bf 28 0d 0f c0 a0 6e da bf
       -2.3375294 -1.798472 -2.235178 -1.706501
0002d0 9e ec d6 bf 79 6c a3 bf d1 7f cf bf d7 74 e4 bf
       -1.679096 -1.2767478 -1.6210881 -1.7848157
0002e0 eb c4 ee bf 98 45 a8 bf 80 9e ff bf 92 cb a5 bf
       -1.8653845 -1.3146238 -1.9970245 -1.295275
0002f0 ed bb e3 bf be fb eb bf cf 32 b5 bf ee bd 06 c0
       -1.7791725 -1.8436201 -1.415613 -2.1053424
000300 bf bb f3 bf d8 eb e6 bf 08 04 fe bf 26 2f dd bf
       -1.904167 -1.8040724 -1.984498 -1.7280014
000310 2c 8c 7f bf 58 8a c4 bf cd b2 77 bf aa 71 c2 bf
       -0.9982326 -1.5354719 -0.96757203 -1.5190938
000320 59 ea f9 bf 65 9e e0 bf ad 0d ac bf 1a 1c 12 c0
       -1.9524642 -1.7548338 -1.3441674 -2.2829652
000330 64 f7 cf bf 82 c8 93 bf aa 7d e5 bf 0f fe d2 bf
       -1.6247373 -1.1545565 -1.7928975 -1.6483783
000340 a3 c9 cd bf a3 0d f4 bf 84 8d 00 c0 f6 06 e9 bf
       -1.607716 -1.9066662 -2.0086374 -1.8205249
000350 d4 6a 67 bf fe 9d f3 bf bb 73 d3 bf b4 03 9a bf
       -0.9039738 -1.903259 -1.6519693 -1.203238
000360 06 b8 bd bf 80 51 83 bf 9d f0 bc bf 4a 1c 0e c0
       -1.4821784 -1.0259247 -1.4760929 -2.2204766
000370 0f f1 f4 bf 30 fd 09 c0 f6 73 0e c0 d2 b5 f5 bf
       -1.9136065 -2.1560783 -2.2258277 -1.9196112
000380 90 2f e8 bf a5 38 16 c0 17 75 0a c0 a3 c8 f6 bf
       -1.8139515 -2.3472073 -2.1633966 -1.927998
000390 27 17 c3 bf 29 71 b3 bf 4a f1 f0 bf 59 f5 ff bf
       -1.524144 -1.4018909 -1.8823636 -1.9996749
0003a0 a3 3b 00 c0 15 29 03 c0 d3 2f c5 bf ee dc e3 bf
       -2.00364 -2.0493824 -1.540522 -1.7801797
0003b0 5e df df bf 42 f0 e4 bf 33 c8 05 c0 47 ca c6 bf
       -1.7490041 -1.7885821 -2.0903442 -1.553048
0003c0 dc cb 12 c0 61 a0 ce bf de fc e8 bf 9e bb be bf
       -2.2936926 -1.6142694 -1.8202169 -1.4901006
0003d0 50 91 c0 bf 59 e6 09 c0 2c df d9 bf 17 28 b4 bf
       -1.5044346 -2.1546843 -1.7021232 -1.4074734
0003e0 0e fd fc bf 21 b8 f9 bf 81 8a 6f bf a0 e3 08 c0
       -1.9764726 -1.9509317 -0.93570715 -2.1388931
0003f0 64 6e c9 bf fb a1 af bf 46 da 03 c0 37 11 e8 bf
       -1.5736814 -1.3721308 -2.0601974 -1.8130254
